chat-ai.tflite (tflite, 85292 bytes, 6 tensors)

sequential/dense/BiasAdd/ReadVariableOp/resource f4 [128]
00000000: 48cf ad3d 0893 f73d 13d9 133e 7da2 dc3d
00000010: fedd f43d 79d7 123d 7826 53bc da87 0e3d
00000020: df24 3ebd 721e cabc 043b 01bc edae 1e3d
00000030: 5a0f 6c3d 4da1 b33c 72db 023e 065f b83d
00000040: 00ef 4fbd 00bf 72bc 4895 3e3d d444 0c3e
00000050: 5be1 803d f019 5fbd 6798 82bd a6ac fe3d
00000060: 4f7d a03d 6db0 fe3d ddc4 473d cd01 b2bd
00000070: 8b4a fe3d e543 c7bc 96d2 713b bb8f 473e
00000080: 86eb 8f3d 170d 133e b09e 3fbe ae6a 263e
00000090: 9c90 84be 0278 263e 3fb9 083e 0c88 453c
000000a0: 311b debd 3bd1 00bd 20b7 f3bd 6b1d 093e
000000b0: 89e7 d53b 1e16 5e3e 331e 3f3e bad7 bd3d
000000c0: 07a1 c9bd 05ad 93bb e1b7 313e 50a9 78bd
000000d0: 31c4 31be 6544 743d 5aee 2a3e 58d9 143e
000000e0: 8e0f 52bd cb8d f13d 2ec0 243d 2ff5 6abd
000000f0: 3807 513d 54c1 ecbb 8b24 463e 8590 e73d
00000100: 8133 73be 15fd 003e 497b 693d 6b31 b6bd
00000110: c32d ed3d 6e8c 09bd 5a02 14be 23bf 51bd
00000120: daab c2bd d369 043e e790 fd3d 3102 623d
00000130: 759d b5bc f58f 303e 2d2a af3d 2fc9 263d
00000140: 3325 0f3e fa59 3bbd 0f1a 6bbd a499 513e
00000150: 53da 62bd d655 7a3c bdf4 5b3e 75f2 76be
00000160: bc4f 5a3d cbc6 053e 846e d83d cf6f 313e
00000170: 441e 3ebe 4b9e 433c b1c7 923d 3b2b 22bd
00000180: 5bc0 3a3e a578 f93d 8bfb ed3d aafd 38bd
00000190: fe22 db3c b200 6bbb 9d80 d7bc 74d1 8c3d
000001a0: dd8d d93d 1a33 25be 794f d23d e9bf 11be
000001b0: 5183 3c3d d389 06be 2a81 cb3c 612d 193e
000001c0: cbf0 36bc a35b 963b ae9c 4b3e adc7 103e
000001d0: fbd8 1f3c 5407 8ebb ea9f 28bd 3071 f6bd
000001e0: 7559 33bd 6fc2 babd 6ef4 b9bc b1c1 323e
000001f0: 87cb 3f3e 8c8a 9c3c acad 7c3e 7658 c9bc
0.084868014 0.12088591 0.14438276 0.1077318 0.11956404 0.035850022 -0.01288759 0.034797527
-0.04642188 -0.02467272 -0.007887606 0.03874104 0.057631828 0.0219275 0.12779024 0.09002499
-0.050765038 -0.014816046 0.046529084 0.13698131 0.06292983 -0.054468095 -0.06376725 0.12435274
0.07836401 0.12435994 0.048771728 -0.0869175 0.12416562 -0.024324367 0.00368992 0.19488423
0.070273444 0.14360462 -0.18712878 0.16251633 -0.25891578 0.16256717 0.13351916 0.012056362
-0.1084503 -0.031449538 -0.11900163 0.13390128 0.0065278453 0.21688125 0.18663864 0.09269662
-0.09845167 -0.0045067095 0.173553 -0.060708344 -0.17359997 0.05963554 0.16692486 0.14536035
-0.051284365 0.11794623 0.04022234 -0.05736273 0.051032275 -0.007225195 0.19349878 0.11306862
-0.23750116 0.12596543 0.05700234 -0.088961445 0.11580994 -0.03358119 -0.14454022 -0.051207673
-0.09505434 0.12930994 0.123811536 0.05517787 -0.022169808 0.17242415 0.08552966 0.040719207
0.13979034 -0.045740105 -0.0573979 0.20468765 -0.05538399 0.015279254 0.21480079 -0.24115928
0.053298697 0.13064115 0.10567954 0.17327808 -0.18566233 0.011939595 0.07166994 -0.03959201
0.1823744 0.12181214 0.11620244 -0.045163788 0.026750084 -0.0035858569 -0.026306445 0.068758875
0.106227614 -0.16132775 0.102690645 -0.14233364 0.04602367 -0.13138513 0.024841864 0.14958717
-0.011165808 0.0045885607 0.19883987 0.1413867 0.009756322 -0.0043343697 -0.04116813 -0.120333076
-0.043786485 -0.091191165 -0.022699561 0.174567 0.18729983 0.019109033 0.24675626 -0.024578314

sequential/dense_1/BiasAdd/ReadVariableOp/resource f4 [64]
00000000: c296 1c3d 441d 123e bd93 ad3d b59a 5d3e
00000010: 7be8 3f3e cbc3 8c3e 209d b63c 4536 db3e
00000020: 5886 b8bd 7062 1c3d 3ebf 513d 0576 813e
00000030: e005 0cbe ac6e 9a3e 9537 b4bc a4f5 a1bc
00000040: 5bce c83c d0dd 06be 2ea9 4b3e 4a52 c03d
00000050: be3d b73d 27c9 f93b e2dc c2bd d9a3 df3c
00000060: 905b 1c3e 6169 3f3e 8749 b13e 2f31 6e3e
00000070: c781 393e 1756 6abe e335 883e 44c6 cd3d
00000080: 3381 6f3e f31f bbbd 01c3 22bc c203 efbd
00000090: 20d9 313e f191 aa3d afa1 fdbd ae46 2f3e
000000a0: be38 6a3e 4deb 893e fc97 3b3d fca8 423e
000000b0: ebed 953e 2d5b a13e a54c 053d a7cf f53d
000000c0: 27f9 563e 9e01 303e 00f5 c33e e012 a93d
000000d0: 2307 dd3d c97d ed3d 3ecc 37bd f007 fe3d
000000e0: 6ca5 1b3e 5522 07bd da82 bf3e 36a9 4a3e
000000f0: 1c9a 023e 8d37 96bd 2211 663e 782d d33d
0.03822971 0.14268976 0.084754445 0.21641047 0.18741028 0.27493128 0.02229172 0.42814842
-0.09009999 0.038179815 0.051207773 0.25285354 -0.13674116 0.3016256 -0.02199916 -0.01977045
0.02451246 -0.13170552 0.19888756 0.093906954 0.08947323 0.007622856 -0.09514786 0.027299808
0.15269303 0.18692543 0.3462641 0.2326095 0.18115912 -0.22884403 0.26603612 0.10047582
0.2338913 -0.09136953 -0.009934188 -0.116706386 0.17367983 0.08328617 -0.12384354 0.17116806
0.22873208 0.26937333 0.04579924 0.19009775 0.2928308 0.31514874 0.032543797 0.12002497
0.20993482 0.17188117 0.38272858 0.08255553 0.10792377 0.11596257 -0.044872515 0.12403858
0.15199822 -0.032991726 0.3740452 0.19791111 0.127541 -0.07334814 0.22467473 0.10311407

sequential/dense_2/BiasAdd/ReadVariableOp/resource f4 [15]
00000000: 84a4 8f3c 8881 4abe fbc4 c03e 1d7d 243f
00000010: 3290 413f 7564 bebe 0075 fe3d ef6d 463d
00000020: 6833 5e3d 8138 e53d 71da ffbe 71db 4fbb
00000030: a61d f4bd 50c9 0bbf 63a0 c9be
0.017534502 -0.19775975 0.37650284 0.6425341 0.7561065 -0.37186018 0.1242466 0.048444685
0.054248244 0.11192418 -0.49971345 -0.003171649 -0.119197175 -0.54604053 -0.39380178

sequential/dense/MatMul f4 [128, 90]
00000000: faf1 973d 142c 8dbd 366b 0c3e 2269 3cbd
00000010: fd7f 08be 1753 3b3d a64a fb3d d2a4 6dbb
00000020: ae08 0bbe 6255 5fbd 68ad 11be 8e3c f6be
00000030: cb52 f83c 9265 8f3e b39b 24be 83db 4d3c
00000040: 1e76 423d aba1 febd f83a 1c3d f814 8b3e
00000050: 101e 34be c09e c43c dad6 c53d de9d 113e
00000060: 50b7 de3d e01a 7f3e b0d2 2a3c 9199 31be
00000070: 62bd f93c 5d8b f0bd 051e bd3e 6602 fcbd
00000080: ff3f c93e 2613 cb3e 03d8 b73d 694b 11be
00000090: c173 8bbd 7c76 013e 9f4f 8bbd 1992 2b3e
000000a0: b836 bf3c bcd4 5d3d beec 603b 9a50 f13d
000000b0: 1f5b afbb 43e9 40bd 69ab 10be 8840 15be
000000c0: d437 37be 3424 edbc 810e 88bd e6d4 513e
000000d0: 0c2a bcbd 0eb9 cebd 850b cc3d 0cdd 25bd
000000e0: d699 d8bd c2e4 99bd b079 313d dbe7 b4be
000000f0: a6cc d03c 96b7 c3bd dad7 7b3e 1b3f ff3d
00000100: b1c1 963d a8c7 b03d 56da 223f 44a1 e1bd
00000110: 926e 5c3d 6d7a 4e3e 1acf 2fbe c927 78bd
00000120: 6b61 873e 14e7 e7bd 2e28 f9bd f274 dc3e
00000130: 9fee a23e a54a 88be 9c39 4abe 8fea 003e
00000140: 3642 eabd 0c69 0c3e 58da 1f3e 7ebb 853d
00000150: 9840 1ebe 0d38 983e d7d9 68be 08dd 113d
00000160: 4f2c 80bd ef74 21bd f297 153a 7738 113c
00000170: 27ee 203e 0698 afbd 9bb9 e63d 2478 7e3d
00000180: 58b0 b0bd c315 4ebe ed4c 28be 35c6 c63c
00000190: bc86 503e 6ce0 0e3e 7575 c6bd 03e0 373e
000001a0: 1703 993d 4501 03be 096e 4ebd 9583 7e3e
000001b0: ddee da3c fe06 e4bd af1a aebd 240b cfbd
000001c0: b6b6 0fbe 323a a6bd 0028 9c3b 23ce 69bd
000001d0: 80ad 293d d03b fbbd ec80 83bd 6d69 8fbd
000001e0: f396 08be 8cfa e3bd 18f4 2fbe 02c2 3fbe
000001f0: cdcf 1bbe c5be bbbd e7ba 07be 847c 12be
00000200: 60ec 36be 3329 24be c800 dfbd 572f fbbc
00000210: e4c8 08be e7ac 5f3d 67f3 a43d a5a2 8c3e
00000220: fc3e 313d 6492 c7ba 7233 0e3d 11f7 423c
00000230: b704 d33e 2e0c f5bd 3be6 2dbe 1a5f 1abb
00000240: 5bf2 053f 16bb c73a 53dd e93d c09b 3ebc
00000250: 7623 3abd cf74 943d aa44 fcbd d6c4 0ebe
00000260: dccb 11bd 7491 cabd 22bb ba3b 7c51 dbbd
00000270: 909a 2c3d 2a56 413d f7c2 e23c 274d d0bd
00000280: 9461 923e e456 8c3e 26fc 533d 4eaa 89bb
00000290: 27c4 6a3e d8e3 073d 8359 9a3d 91ed 823c
000002a0: f3a3 79be abca 393d 23b7 953d 782f f4bd
000002b0: 6e68 10be 38e2 3f3c 016f 1cbe ef87 f9bd
000002c0: 6553 f5bb 9159 7f3d 73ff 6bbe b621 2abe
000002d0: 0bfb f3bc 87ad 7fbe 9bc1 21be 5e3b ce3d
000002e0: 3a06 383e 6296 39be 8186 36be f7eb febc
000002f0: e581 483e 5f55 e8bc c2fd 2b3d 3abc bc3c
00000300: a05a 8dbd 4c04 adbd c9c9 5fbd 3aa8 1ebb
00000310: e8c3 9a3d 2f41 d53d 5cfb bf3d 3487 29be
00000320: 1706 cdbc 589a 0e3d a2b6 393e 5c7b ccbd
00000330: 5e11 603e ecf0 50be 461b 993e d753 c83d
00000340: 6564 f63d 52fa 0d3e 730c 74be bf6e 5cbd
00000350: fd8b 73be 99a8 86be 34b5 c4bd 30d5 a9bd
00000360: 076d ea3c c196 1cbe 0519 213d 1f52 f7bd
00000370: f473 5e3d 10d5 763e e8be 82bd 9a44 c83c
00000380: b5bd 00be 1b62 1fbc f543 953d 80af 083d
00000390: 30a9 c73e 2efe 133e 9421 38be bdee 213c
000003a0: 3bb2 05be 820d 8dbe 55f4 53be 7549 aabd
000003b0: 65c5 80bd d6f1 013d fc64 24be cbd3 363d
000003c0: fbe0 903d 3cf1 56bd 9a36 2ebe d661 f43d
000003d0: a7b8 16be f87e 45bd 7bdf aebd 08fe 883d
000003e0: d5fc 7d3d c8e9 973d de02 9b3d e8fe 04be
000003f0: a863 0fbe ec1f 0f3e 64a0 533e 9f2c 0bbe
0.074192 -0.06893173 0.13712773 -0.0459987 -0.13330074 0.045733538 0.122700974 -0.003626157
-0.1357753 -0.054524787 -0.14226305 -0.48093075 0.030312916 0.2800718 -0.1607502 0.012564543
0.047475927 -0.124331795 0.038142174 0.27164435 -0.17589593 0.02400148 0.0966012 0.14220378
0.10874808 0.24912596 0.010426208 -0.17343737 0.030485813 -0.117453314 0.36936966 -0.12305145
0.39306638 0.39663047 0.08976748 -0.14188923 -0.06809188 0.12642854 -0.06802296 0.1675495
0.023341522 0.054157957 0.0034320797 0.11782952 -0.0053514387 -0.047097456 -0.14127888 -0.14575398
-0.1789239 -0.028947927 -0.066433914 0.2049137 -0.09187707 -0.1009389 0.09963135 -0.04049401
-0.10576217 -0.07514335 0.04332894 -0.35333142 0.025488209 -0.095565006 0.2459406 0.12463208
0.073611625 0.086318314 0.63614404 -0.11017087 0.053816386 0.20163889 -0.17168847 -0.060584817
0.26441512 -0.113233715 -0.12165867 0.43057972 0.31822678 -0.2661945 -0.19748539 0.12589477
-0.1143841 0.13711947 0.15610635 0.06529902 -0.15454328 0.29730263 -0.2273935 0.035611182
-0.06258451 -0.039418157 0.00057065405 0.00886356 0.15715848 -0.08573918 0.1126587 0.062126294
-0.08627385 -0.20125489 -0.16435595 0.024264434 0.20363897 0.13952798 -0.09690372 0.17956547
0.074712925 -0.12793453 -0.050397906 0.24854882 0.026725227 -0.11134146 -0.08501183 -0.10109547
-0.14034542 -0.081165686 0.0047655106 -0.057081353 0.041425228 -0.12267268 -0.06421074 -0.0700253
-0.13338833 -0.111317724 -0.17182958 -0.18726352 -0.15215988 -0.09167246 -0.13254891 -0.14305311
-0.17863607 -0.16031341 -0.10888821 -0.030662222 -0.13357884 0.054608252 0.08054238 0.27467838
0.043272957 -0.0015226123 0.03471703 0.0118997255 0.41214535 -0.11965214 -0.16982357 -0.002355522
0.5232293 0.0015238251 0.11419167 -0.011633813 -0.045443974 0.07248842 -0.12317784 -0.13942274
-0.035594806 -0.09891024 0.0056985775 -0.10708901 0.04213959 0.047201313 0.027680857 -0.10170966
0.2859007 0.27410042 0.05175414 -0.00420121 0.22926389 0.033176273 0.07536604 0.015982421
-0.24378948 0.045359295 0.07310321 -0.119231164 -0.14102337 0.01171165 -0.1527672 -0.121841304
-0.007486748 0.062341277 -0.23046665 -0.16614422 -0.029782793 -0.24968539 -0.15796511 0.10069917
0.17971125 -0.18123773 -0.17824747 -0.031118376 0.19580801 -0.02836102 0.04199005 0.023038972
-0.06902051 -0.08448085 -0.054635797 -0.0024209158 0.075568974 0.104128234 0.09374115 -0.16555482
-0.025027318 0.034815162 0.18136075 -0.099844664 0.21881625 -0.20404404 0.2990362 0.09781616
0.120308675 0.13865021 -0.23832874 -0.053816553 -0.2378387 -0.26300505 -0.09604874 -0.082926154
0.028616441 -0.15291883 0.0393305 -0.1207621 0.0543098 0.24104714 -0.06384069 0.024446774
-0.12572367 -0.00972798 0.072883524 0.033370495 0.38996267 0.1445243 -0.17981559 0.00988358
-0.13056271 -0.27549368 -0.20698674 -0.08314792 -0.0628765 0.031724773 -0.16054147 0.044635575
0.070741616 -0.052476153 -0.17013016 0.11932723 -0.14718877 -0.04821679 -0.08538719 0.066890776
0.062008698 0.07417637 0.07568906 -0.12987864 -0.1400286 0.13977021 0.20666653 -0.1359124

sequential/dense_1/MatMul f4 [64, 128]
00000000: cc3e 633e 0c31 73bd 97bb e33d 3736 89bc
00000010: 9b89 18bb 2b95 223e 9cf3 273e a932 80bd
00000020: 6014 abbd cbe5 0a3c 60d4 fb3d ad46 a53d
00000030: a8f8 283e 8b39 1cbd 5037 273d af34 19be
00000040: 7c2a 293e 1daa 3abe d46b 7a3d 3885 b63d
00000050: f585 9a3e d0cc 37be 3e66 1bbe 06c6 153e
00000060: 6e25 c13d cd7c 7fbd 8cc6 0c3d 7191 023e
00000070: a7ae 0dbe 7fab f5bd 43ff afbd 0bf0 983c
00000080: 39d2 8dbd cfad aebd dd0a 233d afa7 e1bd
00000090: d9fb b03e cfd3 24be e5c1 923e 61cb cebc
000000a0: b1c1 fb3d 11b7 3dbe 243f 57be 8883 61be
000000b0: db55 03be 4902 2abd 2651 62be b8a9 4abe
000000c0: 0948 15bd 6319 9aba dcef 14be 42ea 6b3e
000000d0: 66b9 cabd 04b9 b5bd 3604 0dbe a347 073d
000000e0: 9bb3 853d dfdb 843e 9bbf 3f3e bc10 e23e
000000f0: cd57 013e 66b3 d4bc 839d 1c3e f29a e93e
00000100: eab4 c03d 129b 363e a215 e13e 39c6 d9bd
00000110: 3b8d c5bd 536d 7e3d fb85 9dbc 9ece 3c3e
00000120: 4807 fb3b 7ee8 e73c 9733 cebc 3afb 9d3b
00000130: 0821 c23d 5323 86bc 2c21 683e 85e4 303e
00000140: aaa3 3c3e 766b 9e3e 02f0 103c 56b9 21be
00000150: e13d cc3c c6d6 92bc 7a38 24be b433 4b3e
00000160: 1e3b bfbc fd54 40bc fbef a53d e09c 7bbd
00000170: 910b d63e 45d7 92bd 16ad a73a ab17 26be
00000180: 4d30 813e b399 7ebd 422b 8ebe 7ac2 15bd
00000190: 3ed3 4cbe 7a8e 0f3d 0962 2fbd 593e 56be
000001a0: 6e68 023e 0f79 01bd 1f1b 833e 7460 e6bd
000001b0: 2802 80bd 8ef1 b03d a5a6 e5bd 49fd 8c3d
000001c0: dd1e 213d 5684 923d ce41 b1bd 2afa c0bc
000001d0: 1dcf a73e 1c6b 07be 0fe6 5a3e d25e 88bd
000001e0: 3410 99bd 2b40 003e 37bd 9ebd b2ae f43d
000001f0: f654 a9bd dd5c ea3c d903 c8bb 4a81 e33d
00000200: 37ae 80be 1beb 13bd 3b4d 0a3e 1a8e 193e
00000210: 3073 a8bd 16ab 883d 6da1 63be de11 23be
00000220: f8d5 423d 0d8f 21bd 05c6 dd3e cbaa c93d
00000230: 1bc2 5ebd e981 143d 0440 7ebe d086 3f3e
00000240: c6cf 003e 025f 98bc 9a20 083e df57 2e3d
00000250: 5e4a 1bbe 81a0 953d 056f 413e 1da0 1f3e
00000260: 80b0 d53d 9f98 cabd 7648 963e 211e 443d
00000270: 95e1 70bc b497 fc3c 33f9 36bd 2149 a8bd
00000280: 6f5d 7a3d c785 bfbd da7d 573c eb4d a3bd
00000290: 723d 28be fdde 9fbc 992c 233e 5967 d83c
000002a0: 772a 853e 8cc0 043e 59a5 c0bd 15b4 4e3d
000002b0: 5376 fb3d be66 47be f4b5 dc3d 8da1 dfbd
000002c0: a0a9 a7bd 28ac 32bc 3fc4 d83d 5ff8 17be
000002d0: 565b 98bd 8f16 00be 452f b0bd 4211 0dbe
000002e0: 53bf 9b3c fe60 6a3e 00d6 43be 31d6 f63b
000002f0: bbb8 8b3d 725d 09be 5e1e 56be a82e a93d
00000300: 5782 10be 90be c53d f70e f63d 1393 d73d
00000310: 7e74 ca3d 7be8 313d e475 893d b683 c43d
00000320: 0528 1cbe 796a 953d 0966 89bd f104 d6bb
00000330: 7842 953d bf00 553b 3559 363e 00bd 233b
00000340: b4aa 6d3d d9e3 363e 7d3b 9cbd 3e34 323d
00000350: 110d 9abe 4249 e13c 158d d73d 8262 c3bd
00000360: 6c23 aa3d 8494 81bd 7abc 37bd f972 123d
00000370: c724 0bbe c76f 8f3d 8d41 d73e 16cb f63d
00000380: 11ff 653e f184 aa3c be98 15bb f9be 4ebe
00000390: af80 8cbd be75 bc3d d55e ef3e 79cb c43d
000003a0: f007 8e3e be22 073e 9068 19be ef1e 0b3e
000003b0: 98d1 423d 5938 abbc a5c3 3a3d ad38 aa3d
000003c0: 0a9b 4e3e 3dff 4d3e 2b81 753e cb44 d0bc
000003d0: b26b 66bd 026d 04be ae34 5d3d c73a 9dbd
000003e0: e1ee 023e 5c3b f3bd ba72 303e 9865 233d
000003f0: 7584 febd 4d7a 733e b5b8 1f3e 4f97 29bd
0.22191924 -0.059372947 0.11119764 -0.016749484 -0.0023275379 0.15877216 0.16401523 -0.06259663
-0.083534956 0.0084776385 0.12296367 0.08070121 0.16501105 -0.038140815 0.040824234 -0.14961503
0.16520113 -0.18228956 0.06113799 0.08912128 0.30180326 -0.17949224 -0.15175721 0.14626321
0.09430967 -0.06237488 0.034369037 0.12750794 -0.13836156 -0.11995601 -0.08593609 0.018669149
-0.069248624 -0.08529245 0.039805282 -0.11018311 0.34567145 -0.16096424 0.28663555 -0.025243463
0.12292803 -0.18526866 -0.2102018 -0.22022831 -0.1282572 -0.041506086 -0.22101268 -0.19791305
-0.03644565 -0.0011756833 -0.14544624 0.23038581 -0.09898643 -0.088731796 -0.13771138 0.033027302
0.06528398 0.25948998 0.18725435 0.44153392 0.1263115 -0.02596445 0.15294461 0.45626026
0.094095066 0.17832592 0.43961817 -0.10633511 -0.09646078 0.06211598 -0.019228926 0.18438193
0.00766078 0.028309103 -0.025171084 0.0048212083 0.094789565 -0.016374266 0.22668904 0.17274673
0.18421808 0.3094136 0.008846285 -0.15793356 0.02493185 -0.017924678 -0.16037169 0.19843942
-0.023343619 -0.011739013 0.08102413 -0.061428905 0.418057 -0.07169966 0.0012792672 -0.16219966
0.25232163 -0.062158298 -0.27767378 -0.03656242 -0.20002457 0.035047986 -0.042818103 -0.20922221
0.1273515 -0.03160959 0.2560663 -0.11248866 -0.06250411 0.08639823 -0.112134255 0.06884248
0.039336074 0.07154147 -0.086551294 -0.023556788 0.32775202 -0.13224453 0.21376823 -0.066587105
-0.074737936 0.12524478 -0.077509336 0.11947383 -0.08268158 0.028608734 -0.0061039743 0.11108644
-0.25132915 -0.036112886 0.13506024 0.14995614 -0.08225095 0.06673257 -0.22229548 -0.15924785
0.047567338 -0.039443064 0.4331514 0.09847029 -0.054384332 0.036256704 -0.24829108 0.1870377
0.1257926 -0.01859999 0.13293687 0.04256427 -0.15165088 0.07306004 0.18890007 0.15588422
0.10434055 -0.098923914 0.29352158 0.047880296 -0.01470222 0.030834056 -0.04467125 -0.08217073
0.06112426 -0.09351688 0.013152564 -0.07973846 -0.1642969 -0.019515509 0.15934981 0.026416468
0.2600896 0.12964076 -0.094065376 0.05046471 0.12278428 -0.19472787 0.10776892 -0.10919485
-0.0818665 -0.010905303 0.10584306 -0.1484084 -0.07439296 -0.12508605 -0.08602766 -0.13776115
0.019012129 0.22888562 -0.19124603 0.007532858 0.06822344 -0.13414553 -0.20910022 0.08260852
-0.1411222 0.096554875 0.12014573 0.10526099 0.098855 0.0434346 0.06711939 0.09595434
-0.15249641 0.07295699 -0.06708915 -0.006531351 0.072880685 0.0032501665 0.17807467 0.002498448
0.058024123 0.17860354 -0.07628534 0.043506853 -0.30088094 0.027500752 0.10524956 -0.09540273
0.083075374 -0.06327155 -0.04485748 0.035754178 -0.13588248 0.07003742 0.420422 0.12050454
0.22460581 0.020815345 -0.0022826637 -0.20190038 -0.06860482 0.09202145 0.4675204 0.09609122
0.2774043 0.13196847 -0.14981294 0.13586019 0.047563165 -0.020900892 0.045596737 0.08311591
0.2017633 0.20116897 0.23975055 -0.025423428 -0.05625505 -0.12932208 0.054005317 -0.076772265
0.12786438 -0.11876556 0.17231265 0.03989181 -0.12427608 0.23777123 0.15597804 -0.041404065

sequential/dense_2/MatMul f4 [15, 64]
00000000: 3267 863e dfa5 9cbe d250 d9be 929a 19bf
00000010: 3acf 76be 0e47 1a3f dd5a 163e 915b 01bf
00000020: 2147 07be b2aa 163f 9c65 ccbe a96f 9d3e
00000030: 2152 1fbe a9cb db38 2d62 ecbd 183a b1be
00000040: cc29 c7be 450a fbbe 1f9a 163f b5c7 093f
00000050: c255 c4be d20c ce3e 884a 89be bd59 1bbf
00000060: 77b5 45bf 690e 73be 7e83 dfbe 897a cbbe
00000070: c353 1c3e 5338 113f 99a6 fd3e 2764 433d
00000080: 4fa5 cbbe 3c55 8e3e 13f3 05bf 5901 e73d
00000090: b3f1 013f 892e 17bb 40f1 0abf 085b 0a3d
000000a0: 263d e4be 190b ba3e 0138 0bbf 05e1 ed3e
000000b0: f22b d2bc 9760 273f f89c 013f 6681 073f
000000c0: 4e86 0e3f cf34 f03e ba01 b63e 547f a3be
000000d0: a36d 99be 44e0 d5be 3b3f dbbd 1f71 9a3e
000000e0: 1ba5 abbe fd01 51be d379 9bbe 479f febe
000000f0: d1eb 013f 5a82 053f c0a5 5c3e 6159 bf3e
00000100: 6f8d b4be 3821 ddbe ac5a 073f 0c18 f13e
00000110: 6c69 0b3f 8d19 7abe 11ec a33e 0038 d7be
00000120: 0adb 513e f53f a2be 5308 8fbd dd7d 0abf
00000130: c7c7 9a3e cd91 b83e fd90 68bd 0e61 b6be
00000140: 3b12 e83e 6d97 1e3f 886d 96be efc4 e1bd
00000150: c6c2 33bd 7f19 c83e 33b4 3abe 38ad fabe
00000160: 1a02 cf3e 09a1 1c3f 4d77 5dbe d43a a73e
00000170: 5e27 a4be c885 493e be0a 233e fba7 bcbe
00000180: 6667 bf3e 7fd3 88be 3036 f03e bc7e 2d3d
00000190: fad6 f9be 10a0 cd3e e7a5 da3e 7e77 d33e
000001a0: 3dcc 10bf 6ec6 9ebd ae8f c93e 3a00 15be
000001b0: d75d 72be 308b 133f 9d6f b5be ab6f aabe
000001c0: 6e49 aabe 1223 8bbe 9ca4 29bf dde9 e43e
000001d0: c1fd 293f 0029 253f b199 683e 4602 86be
000001e0: 840b 80be e3a9 953c 7095 e2be 917d aebe
000001f0: 3cd0 123f 78c4 a6be a1e3 8dbe a8a8 483d
00000200: 5e56 af3e f43a d43e 2358 0dbf 8438 bd3e
00000210: 97bb 8fbe acd2 9fbe 8104 493d 757c f8bc
00000220: bff9 30be a144 2a3f 4bbc 143f 0cd0 0e3f
00000230: 6b1d 09bf 23ac 4bbf 913a 003f b68b fbbe
00000240: 7bd8 2b3f cd23 acbe cc8f d83e 280d 14bf
00000250: 1905 c03d a07d e2be 80a7 a6be 686d 29be
00000260: 4ec5 d6be 1d6c f9be a425 2e3f 67e8 22bf
00000270: d30b e23e 0ba2 d0be 521e c3be c4eb 113f
00000280: 4a24 033e b209 37bf 63fc d63e a5b7 7b3e
00000290: 8c25 173f 2d12 0c3f 5813 d3be d10b d1be
000002a0: 17e9 3c3e 7b60 a3be b60f 9ebe ac02 9fbe
000002b0: 14b5 983e a6ac 1e3f c7ae f63e 59a6 d8be
000002c0: c52f 8b3d d367 0cbf 4de6 23bf bc48 42be
000002d0: d92e a1be ecda 1d3f 9296 c93d aa73 403f
000002e0: 2785 30bd e492 33bd c321 a7be 19a9 d1be
000002f0: 6ba8 b83d 9bf8 adbe 8b2d 313e b90b 0cbf
00000300: a255 90be 8f28 cfbe e3ae 13bd 591c 0b3e
00000310: 3313 bc3d e5b9 47be 9506 06be 88cc cb3e
00000320: 3f3e 51bc 21d7 3d3f 9546 00be c172 f73e
00000330: 666d 87be 18ce 46bf 2273 aabe ecb1 013f
00000340: 8c1d 933b fe27 9ebe ea59 263f 5287 bfbc
00000350: 9a8e 073f b465 0cbf bf7f 51be 2da3 24bf
00000360: 52ed b93e d663 f4be 9312 1a3f a92c 0ebf
00000370: 893b ef3d e210 e6be e77c e03e fd31 ccbe
00000380: 8016 063f d270 97be 09bc d6be 86a4 87be
00000390: da84 a5be 90d4 02bf eb38 eb3d ea42 363e
000003a0: 5670 0f3f 6c86 d13d 80d0 30be 3c3f c93e
000003b0: fb6d cf3e 3d5e 723e cf06 10bf 88d3 0ebe
000003c0: 4c08 463f c5d4 fbbe 07bd 773e a517 0bbf
000003d0: 5ccf 5bbe 6638 09bf 34a4 e0bd c69d c7bd
000003e0: 71d0 083f 4935 b9bd cbca 1c3e b943 e03e
000003f0: b5bb 263f 77f7 d8be 20b1 90be 1d6b e73e
0.26250607 -0.305953 -0.42444474 -0.6000148 -0.24102488 0.6026467 0.14683099 -0.50530344
-0.13210727 0.5885421 -0.39921272 0.30749252 -0.15558673 0.000104806684 -0.11542163 -0.34614635
-0.38899076 -0.49031273 0.5882892 0.53820354 -0.38346678 0.40244156 -0.26814675 -0.60683805
-0.7723002 -0.23735966 -0.43655008 -0.39741924 0.15266328 0.5672657 0.49541166 0.047702935
-0.39774558 0.27799404 -0.52324027 0.11279554 0.5075943 -0.0023068509 -0.5427437 0.03377822
-0.44577903 0.36336592 -0.5438233 0.4646074 -0.02565572 0.6538176 0.5063014 0.5293182
0.5567368 0.4691529 0.35548192 -0.3193308 -0.2996646 -0.41772664 -0.1070542 0.3016443
-0.33524403 -0.20410915 -0.30366382 -0.49730894 0.5075045 0.52152026 0.21547604 0.37372878
-0.35264155 -0.43189406 0.5287273 0.4708866 0.54457736 -0.2442381 0.32016042 -0.42034912
0.20493713 -0.3168942 -0.069840096 -0.540983 0.30230543 0.36048737 -0.056778897 -0.35620922
0.4532641 0.6194981 -0.2938044 -0.1102389 -0.043886922 0.39081952 -0.18232803 -0.4896028
0.4043129 0.6118322 -0.21627541 0.3266207 -0.32061285 0.1967994 0.15922067 -0.3684691
0.37383574 -0.2672386 0.46916342 0.04235719 -0.48796827 0.4016118 0.42704698 0.41302103
-0.5656164 -0.07752691 0.3936743 -0.14550868 -0.2366861 0.5763426 -0.35436717 -0.3328832
-0.33259147 -0.27175194 -0.662668 0.44709674 0.6640282 0.64515686 0.22714879 -0.2617361
-0.25008786 0.018269485 -0.44254637 -0.34080175 0.5734899 -0.3257177 -0.2771273 0.048988968
0.3424558 0.41451228 -0.5521261 0.3695718 -0.28072807 -0.31215417 0.04907656 -0.030332783
-0.1728277 0.6651097 0.5809981 0.55786204 -0.53560513 -0.79559535 0.50089365 -0.49130028
0.671272 -0.33621064 0.42297208 -0.57832575 0.09375972 -0.4423647 -0.32549667 -0.16545641
-0.41947407 -0.48715296 0.68026185 -0.6363587 0.44149646 -0.4074863 -0.3810907 0.57000375
0.12806812 -0.7149917 0.4198943 0.24581774 0.59041667 0.54715234 -0.41225696 -0.40829328
0.18448292 -0.31909546 -0.30871361 -0.31056726 0.29825652 0.6198219 0.4818022 -0.42314413
0.06796221 -0.54845923 -0.64023286 -0.18973058 -0.31481054 0.61662173 0.09843172 0.7517649
-0.043095734 -0.043841258 -0.32642946 -0.40949324 0.09016498 -0.33978733 0.1730253 -0.5470539
-0.28190333 -0.4046063 -0.036055457 0.13585033 0.091833495 -0.19504507 -0.13088448 0.39804482
-0.012771188 0.74156386 -0.12526925 0.48329738 -0.26450652 -0.77658224 -0.33290964 0.5066211
0.0044896062 -0.30889887 0.6498095 -0.023379955 0.5295197 -0.54842687 -0.20458888 -0.64311486
0.36313874 -0.4773242 0.6018459 -0.55536896 0.11681277 -0.44934756 0.43845293 -0.39881888
0.5237808 -0.29578263 -0.41940334 -0.2649271 -0.3232792 -0.51105595 0.114854656 0.17798963
0.56030786 0.10230717 -0.17267036 0.39306056 0.40513596 0.23668762 -0.5626039 -0.1394788
0.7735641 -0.49185768 0.24193202 -0.54332954 -0.2146582 -0.5360168 -0.10968819 -0.0974689
0.53443056 -0.090433665 0.15311734 0.43801668 0.6513017 -0.423763 -0.28260136 0.45198908
