chat-ai.tflite (tflite, 87348 bytes, 6 tensors)

sequential/dense/BiasAdd/ReadVariableOp/resource f4 [128]
-0.026866607 0.031385437 -0.07057932 -0.08580388 0.036282655 -0.14635752 0.005112867 0.052047726
0.25128576 -0.108232565 -0.02541446 0.23880559 0.21738411 0.093310714 0.22836894 0.051671527
-0.0061168876 0.1544357 0.031225638 -0.043913793 -0.08643926 0.05309683 0.08720154 -0.047481038
-0.09177282 -0.12911718 0.11329134 -0.056790955 -0.046020493 0.102944024 -0.012778132 0.10902412
0.07555203 -0.057172712 0.14241625 0.038801692 0.0056808735 -0.05573181 -0.07369758 0.003580679
-0.038147114 0.11999499 -0.09239063 0.17589936 -0.01620193 -0.001258498 0.1300896 0.0042819344
0.08002103 -0.040896736 0.0025247885 0.11211731 0.060592245 0.16331597 0.10858096 -0.12803516
0.0145298205 0.01976481 0.0050892797 0.042130694 0.15930305 0.019204667 0.2079927 -0.12852238
0.0036041508 -0.03300811 -0.1517 0.08031269 -0.06926756 -0.022358477 0.21841002 -0.052407824
-0.04706854 -0.13101709 0.072109506 0.07221672 0.11814914 -0.0008849739 0.14302851 0.055609435
0.19050674 0.18155178 0.01717779 0.089196764 -0.18542956 0.009407355 -0.05996216 0.06713221
0.08511967 0.17873283 0.05631383 0.17077927 0.07918981 0.10254224 0.1817326 0.23390146
-0.122997485 0.1280544 -0.017636955 -0.039702628 0.15974592 -0.13116586 0.11451751 0.08728262
0.23247008 0.034874726 -0.15604006 0.08681684 0.10337598 0.1637827 0.04452814 -0.060082994
0.050864946 0.119529925 0.26461646 0.08284168 0.19224605 0.014323552 0.3222312 -0.008125735
0.10061329 0.097459085 0.103597164 0.1816039 0.09563336 0.03577672 0.04890932 0.026529385
00000000: 5c17 dcbc 048e 003d e48b 90bd f2b9 afbd
00000010: 1f9d 143d bfde 15be d689 a73b ff2f 553d
00000020: 87a8 803e 09a9 ddbd fc31 d0bc 7489 743e
00000030: f199 5e3e b019 bf3d 8cd9 693e 86a5 533d
00000040: 2c70 c8bb 6424 1e3e e9cc ff3c f3de 33bd
00000050: 1107 b1bd 107c 593d b996 b23d 7a7b 42bd
00000060: 63f3 bbbd 4b37 04be 4a05 e83d a29d 68bd
00000070: fc7f 3cbd 51d4 d23d 5f5b 51bc 0a48 df3d
00000080: 06bb 9a3d ef2d 6abd 91d5 113e 86ee 1e3d
00000090: 9f26 ba3b 0a47 64bd c2ee 96bd d3a9 6a3b
000000a0: 2640 1cbd efbf f53d 4c37 bdbd f61e 343e
000000b0: e9b9 84bc 30f4 a4ba 3536 053e 784f 8c3b
000000c0: 11e2 a33d 5683 27bd ec76 253b c39d e53d
000000d0: 932f 783d 4d3c 273e b25f de3d a61b 03be
000000e0: 7c0e 6e3c d0e9 a13c f9c3 a63b 3c91 2c3d
000000f0: 5720 233e 1b53 9d3c 0afc 543e 5f9b 03be
00000100: 9e33 6c3b 8333 07bd 3f57 1bbe fb7a a43d
00000110: 27dc 8dbd 2029 b7bc e0a6 5f3e 96a9 56bd
00000120: f1ca 40bd 5829 06be 26ae 933d 5ce6 933d
00000130: 2df8 f13d 98fd 67ba 1176 123e b8c6 633d
00000140: 3314 433e b6e8 393e 70b8 8c3c cbac b63d
00000150: 3fe1 3dbe 4f21 1a3c e29a 75bd 9d7c 893d
00000160: 3953 ae3d bd05 373e 55a9 663d c3e0 2e3e
00000170: 442e a23d aa01 d23d 1c18 3a3e dd83 6f3e
00000180: 1be6 fbbd b120 033e 607b 90bc 399f 22bd
00000190: 6f94 233e 5850 06be 2888 ea3d 3bc1 b23d
000001a0: a30c 6e3e cdd8 0e3d f7c8 1fbe 07cd b13d
000001b0: c9b6 d33d a7b6 273e 2463 363d 9619 76bd
000001c0: c357 503d 1bcc f43d cf7b 873e e6a8 a93d
000001d0: 26dc 443e 55ad 6a3c 7dfb a43e ce21 05bc
000001e0: 570e ce3d a198 c73d c02a d43d 5ff6 393e
000001f0: 6cdb c33d 9c8a 123d 2455 483d 2754 d93c

sequential/dense_1/BiasAdd/ReadVariableOp/resource f4 [64]
0.35458788 0.068652876 0.34102994 -0.11278301 0.123872235 0.0042244107 0.37539202 0.08622472
0.045797486 -0.047309633 0.21846607 -0.018729685 0.06354062 0.02012204 -0.11703374 0.023776451
-0.03653989 -0.10356623 0.16973944 -0.09316941 0.1306321 0.046246752 -0.13560529 0.20631915
0.1727076 0.19137408 0.1604408 0.11869012 -0.08389589 -0.08808387 0.106874436 0.10211965
-0.016766598 0.04755639 0.070592426 0.009353118 0.0996401 0.21878657 0.3226035 -0.25161192
0.016293207 0.17509367 0.4770263 0.27206895 -0.019242825 0.024119312 0.031542208 0.13695975
-0.16835566 -0.11227933 -0.10656644 0.11907465 0.446904 -0.17492378 -0.03938466 0.13756241
0.1443344 0.35584736 0.3681143 -0.08617731 0.18703997 0.15984575 0.23919526 0.2382624
00000000: 8b8c b53e e199 8c3d 7a9b ae3e c7fa e6bd
00000010: bab0 fd3d ed6c 8a3b 6233 c03e 9696 b03d
00000020: 2596 3b3d bfc7 41bd 92b5 5f3e ff6e 99bc
00000030: 9621 823d fad6 a43c 63af efbd d5c6 c23c
00000040: daaa 15bd 881a d4bd 2dd0 2d3e 9bcf bebd
00000050: 6cc4 053e 3c6d 3d3d 1ddc 0abe 5445 533e
00000060: 43da 303e 91f7 433e 984a 243e ce13 f33d
00000070: 9cd1 abbd 5165 b4bd fce0 da3d 1b24 d13d
00000080: 1b5a 89bc 7dca 423d c392 903d d23d 193c
00000090: 1c10 cc3d 9609 603e 492c a53e 47d3 80be
000000a0: 5579 853c c14b 333e cb3c f43e 9f4c 8b3e
000000b0: 21a3 9dbc dd95 c53c 6732 013d 2d3f 0c3e
000000c0: 6d65 2cbe b5f2 e5bd 813f dabd 69dd f33d
000000d0: 9ad0 e43e 381f 33be cf51 21bd 29dd 0c3e
000000e0: 66cc 133e a031 b63e 7a79 bc3e bb7d b0bd
000000f0: 6887 3f3e 9bae 233e 9aef 743e 0ffb 733e

sequential/dense_2/BiasAdd/ReadVariableOp/resource f4 [17]
0.02587252 -0.23621136 0.3710465 -0.3127478 0.7732876 0.7263873 -0.6814669 0.25291732
-0.0028008518 0.2493051 -0.14406224 -0.47232726 -0.17410058 0.028093258 -0.016117262 -0.28132832
-0.10574874
00000000: 9bf2 d33c 64e1 71be cff9 bd3e 7b20 a0be
00000010: 2df6 453f 85f4 393f 9d74 2ebf 617e 813e
00000020: 7f8e 37bb d649 7f3e 0d85 13be e1d4 f1be
00000030: 6c47 32be d523 e63c 5908 84bc 440a 90be
00000040: cc92 d8bd

sequential/dense/MatMul f4 [128, 93]
-0.098738454 -0.10172807 0.11517741 0.09447326 -0.022012383 0.09212186 -0.12342279 -0.12845604
-0.0103605585 -0.069968596 -0.082357205 0.16547218 -0.0389304 -0.17578337 0.31495276 0.009237734
0.032727286 0.0031243342 -0.08789893 -0.15078662 0.16298403 -0.046889994 -0.04070572 -0.07991745
0.04425429 0.14894019 -0.034006666 -0.079301596 0.19083449 -0.080625296 0.017954705 -0.008587849
0.20134406 0.13659047 -0.11607622 0.26864478 0.07806654 -0.16512688 -0.044454828 -0.09053819
0.0725754 -0.12732787 0.09907888 -0.05950588 -0.12520836 -0.07033054 0.15135643 -0.07401836
0.040044688 -0.04734604 -0.012650972 0.20666727 -0.0481065 0.15356736 -0.046115804 -0.1276695
0.8252284 0.12174508 -0.11981559 -0.13815215 0.11447982 0.048926644 -0.23585494 -0.07383658
-0.1703282 -0.13911249 0.047102958 -0.13670422 0.50194687 -0.13307238 -0.3221773 0.12684879
0.02730536 0.052201454 0.26876915 0.085505486 -0.11507675 -0.10076118 0.23599286 0.1449205
0.107335515 0.17623085 0.12827347 -0.15058821 0.03533368 0.24571262 0.010928051 0.12154924
0.035438363 0.09478981 -0.14824226 -0.07565915 -0.19372705 0.13395165 0.17369932 -0.14337125
-0.13480416 -0.10733244 0.28150505 0.08267452 0.18043697 -0.07732964 -0.046381474 -0.118866436
0.2072898 0.062197022 -0.028895276 -0.10867401 -0.09226393 0.21723284 -0.11990205 -0.062126778
-0.06311366 -0.10900373 -0.2012449 -0.15757006 0.034702834 -0.116844565 -0.038939442 -0.06730738
0.5627031 -0.12591141 -0.037447527 -0.039255384 -0.14333242 -0.064095 0.5362447 -0.028960021
-0.07276526 -0.0013211521 -0.012313115 0.048180543 -0.14057744 0.10925873 0.5422399 -0.050850086
-0.13003038 0.02507089 -0.13516557 -0.1369527 0.091112815 -0.16877691 -0.1376937 -0.07916569
0.01531267 -0.111321874 -0.14225034 -0.0103317825 0.34206656 0.5592818 0.10247594 -0.0374567
-0.12602852 0.15655962 0.36624032 0.06259539 -0.06489816 -0.010347529 -0.048119444 0.2785331
0.15303111 -0.15081479 0.03958969 -0.15549403 -0.08685758 0.08995964 -0.08557491 -0.008306714
0.18190587 -0.1685277 -0.0761076 -0.13657619 0.050958455 -0.12527782 -0.13789254 0.12007079
-0.10639067 0.44262123 -0.027840884 0.14763896 -0.021165028 0.121615626 0.100627534 -0.1604617
-0.06634538 -0.08713929 -0.16310313 -0.11402346 0.36581606 0.028649377 -0.12197076 0.041680776
-0.072260424 0.13095894 -0.08869836 0.042357616 0.046111763 0.08853829 -0.19300854 -0.13892545
0.48821494 -0.06513754 -0.14310394 -0.09789676 0.103488855 -0.12265769 -0.15915848 0.121820256
-0.00921464 -0.096011624 -0.15922336 0.25084087 -0.17007752 -0.01786245 -0.0020754635 -0.09396797
-0.19775352 0.031221485 0.0559443 -0.035594676 -0.062658384 -0.13493912 0.047361284 -0.06913386
-0.1595543 0.31001073 0.07484938 -0.16693766 0.06842908 -0.048392784 0.018955305 0.07937288
0.26535618 -0.008970319 -0.05905082 -0.124217816 0.3734664 -0.04588452 -0.10134601 0.27182937
0.25508934 -0.15870862 -0.1782612 0.1260785 0.011631861 0.07314095 -0.047872107 0.017942458
0.06925432 -0.09286072 0.19074294 -0.10998923 -0.1139183 0.036799073 0.5633661 -0.05293787
00000000: 6337 cabd ce56 d0bd 22e2 eb3d 327b c13d
00000010: 5053 b4bc 63aa bc3d 16c5 fcbd fb89 03be
00000020: 55bf 29bc b24b 8fbd e5aa a8bd 8a71 293e
00000030: 7c75 1fbd 8e00 34be 7d41 a13e dd59 173c
00000040: 0c0d 063d a1c1 4c3b 5b04 b4bd cf67 1abe
00000050: 49e5 263e b90f 40bd 0bbb 26bd c3ab a3bd
00000060: fd43 353d c783 183e 934a 0bbd e068 a2bd
00000070: 1e6a 433e e01e a5bd bf15 933c 0db4 0cbc
00000080: 232d 4e3e 5fde 0b3e 5fb9 edbd cf8b 893e
00000090: 5ae1 9f3d 0517 29be 4416 36bd 166c b9bd
000000a0: 69a2 943d 3d62 02be dee9 ca3d 70bc 73bd
000000b0: 9f36 00be 7509 90bd 2efd 1a3e f096 97bd
000000c0: e605 243d eced 41bd 0646 4fbc 96a0 533e
000000d0: 520b 45bd c340 1d3e ede3 3cbd cbbb 02be
000000e0: 2b42 533f 7c55 f93d e061 f5bd c277 0dbe
000000f0: 6574 ea3d 4e67 483d f583 71be a237 97bd
00000100: 846a 2ebe 8173 0ebe 08ef 403d 31fc 0bbe
00000110: 977f 003f 2044 08be 6cf4 a4be a6e4 013e
00000120: 7eaf df3c 31d1 553d 1c9c 893e 801d af3d
00000130: 5cad ebbd e15b cebd 1da8 713e 0a66 143e
00000140: b9d2 db3d dc75 343e 1f5a 033e cc33 1abe
00000150: 0dba 103d 179c 7b3e 910b 333c cfee f83d
00000160: d127 113d 2921 c23d d2cc 17be 2ff3 9abd
00000170: 6260 46be 9f2a 093e 3cde 313e eacf 12be
00000180: 1a0a 0abe 1cd1 dbbd 6e21 903e 4251 a93d
00000190: 78c4 383e 015f 9ebd 80fa 3dbd 3f70 f3bd
000001a0: c743 543e 4ec2 7e3d c9b5 ecbc 7b90 debd
000001b0: dff4 bcbd 4972 5e3e 358f f5bd a678 7ebd
000001c0: bc41 81bd 593d dfbd 2513 4ebe 0c5a 21be
000001d0: 8f24 0e3d 344c efbd f77e 1fbd 74d8 89bd
000001e0: 4f0d 103f ecee 00be 9462 19bd 41ca 20bd
000001f0: bcc5 12be 3d44 83bd 5547 093f 913d edbc
00000200: f405 95bd 822a adba f3bc 49bc f658 453d
00000210: 88f3 0fbe 0bc3 df3d 3cd0 0a3f 2e48 50bd
00000220: af26 05be 7861 cd3c d868 0abe 543d 0cbe
00000230: 5b99 ba3d dbd3 2cbe 94ff 0cbe 9f21 a2bd
00000240: fee1 7a3c b9fc e3bd 13aa 11be a346 29bc
00000250: 5923 af3e 182d 0f3f e8de d13d 326c 19bd
00000260: 9f0d 01be 2a51 203e da83 bb3e 0332 803d
00000270: 54e9 84bd af88 29bc e518 45bd e49b 8e3e
00000280: 30b4 1c3e 316f 1abe cc28 223d d439 1fbe
00000290: 63e2 b1bd c23c b83d e641 afbd e218 08bc
000002a0: 8845 3a3e 8692 2cbe 4dde 9bbd a1da 0bbe
000002b0: d0b9 503d d448 00be b433 0dbe ade7 f53d
000002c0: 5ae3 d9bd 409f e23e 9112 e4bc ab2e 173e
000002d0: 4862 adbc 9d11 f93d cf15 ce3d 1250 24be
000002e0: 16e0 87bd 1676 b2bd 8204 27be 2285 e9bd
000002f0: 3e4c bb3e 19b2 ea3c cecb f9bd 76b9 2a3d
00000300: 46fd 93bd 1a1a 063e 7ca7 b5bd 2e7f 2d3d
00000310: b0df 3c3d 9053 b53d 08a4 45be 7942 0ebe
00000320: 4ff7 f93e d566 85bd d789 12be 197e c8bd
00000330: f7f1 d33d f433 fbbd 71fa 22be e67c f93d
00000340: 00f9 16bc bea1 c4bd 730b 23be 376e 803e
00000350: cd28 2ebe 4654 92bc 8004 08bb 4772 c0bd
00000360: e67f 4abe 33c4 ff3c da25 653d b9cb 11bd
00000370: 0a53 80bd 7b2d 0abe e8fd 413d 0e96 8dbd
00000380: 3462 23be bab9 9e3e a24a 993d b5f1 2abe
00000390: 8c24 8c3d 8337 46bd 2848 9b3c 408e a23d
000003a0: c4dc 873e 3ff8 12bc 46df 71bd e965 febd
000003b0: fd36 bf3e 68f1 3bbd 7f8e cfbd 382d 8b3e
000003c0: 129b 823e 8384 22be 1b8a 36be b91a 013e
000003d0: 9093 3e3c ecca 953d 8b15 44bd 10fc 923c
000003e0: 35d5 8d3d c32d bebd 1e52 433e 0942 e1bd
000003f0: ff4d e9bd a0ba 163d c338 103f 61d5 58bd

sequential/dense_1/MatMul f4 [64, 128]
-0.15441296 -0.13912615 -0.058614265 0.097260974 0.21725291 -0.23825254 0.13826075 0.12296464
0.19594204 0.5240266 0.05088649 -0.01984598 0.15133718 -0.015141051 -0.077248335 0.21275465
-0.1955869 -0.3320907 -0.0044489396 0.27129668 -0.075787984 -0.0817566 -0.15246366 -0.13106894
-0.15079454 0.041337583 -0.4453386 0.13559614 0.5343592 0.104483716 -0.057734996 0.17347881
-0.15725292 -0.08562852 0.3199773 -0.3007888 -0.00808337 0.15793012 0.28733137 -0.09847222
-0.14258718 7.0729147e-06 0.18393178 0.19396247 -0.06135292 -0.025635367 0.011792387 -0.0026266286
-0.033810683 -0.121507965 -0.06785886 0.1314999 0.14063917 -0.1049921 0.06156271 -0.060577523
0.027783297 0.0043795733 -0.19028533 -0.040411286 0.03822018 -0.11640711 0.26034167 -0.08162148
-0.17206782 0.1608492 0.020646906 -0.044540923 -0.13184793 0.2004156 -0.061357044 0.1524477
-0.05510186 -0.21613401 -0.1820267 0.27411574 -0.12406302 -0.07116013 0.15177579 -0.16100182
0.15378958 0.24788481 0.1932944 0.1180198 -0.08129743 0.04294145 -0.19172227 0.29466367
0.073290795 -0.014066509 0.17997712 -0.17738001 0.1262362 -0.09946617 0.2577816 0.1578654
0.085323855 -0.23387076 -0.072371036 0.04301315 -0.32959723 -0.32522023 -0.0065171197 0.025751898
0.07092776 0.36568996 0.032182034 -0.04211795 -0.09951555 0.20573676 -0.1280744 -0.20055577
0.2869563 -0.30524603 0.2320727 0.011961449 0.06756354 0.026839754 -0.06270579 0.20665587
0.12697037 -0.17434278 0.23116396 -0.0183706 -0.28886923 0.04224262 -0.113104165 -0.13794968
-0.2153198 0.08777235 -0.2291276 0.2720576 0.16910794 -0.34717864 -0.101448655 -0.021151468
-0.024921885 0.0762928 -0.16068442 -0.007467889 -0.018343395 -0.2254348 -0.117951356 -0.21943544
0.056836188 0.14626037 -0.20334366 0.15773459 -0.12385464 0.11642848 0.049952623 0.12925449
-0.14333391 0.24023603 0.027667115 -0.19508715 0.036151037 0.027751865 0.15528975 0.31145322
0.42642948 0.20796137 -0.19724523 -0.0549732 -0.32030818 0.2366314 0.0087929685 0.174131
-0.067551374 -0.13343497 -0.003340894 -0.18127918 -0.4258528 -0.0035175488 0.03304636 0.43006974
-0.046968136 -0.055908926 -0.12914579 0.28144395 -0.063289165 0.0370855 -0.109351926 0.26257125
0.26068357 -0.10300546 -0.085543334 0.0023781268 0.12030381 0.30823046 -0.122432716 0.07267058
0.054237116 0.067441456 -0.14355236 0.1500295 0.10219555 0.10465419 -0.080932744 -0.08595191
0.049688272 0.111828595 -0.11327411 -0.16937476 -0.2114508 -0.058631852 -0.2600239 -0.09274793
-0.015992036 0.025071105 0.09052521 0.21950251 0.12027398 -0.31294608 -0.089424774 -0.28090388
0.17092255 -0.22025365 0.45011845 0.07833775 0.01513103 0.17303088 0.25884992 -0.03008439
0.16011871 0.068162195 -0.08396622 0.1038181 -0.020192532 -0.20642883 0.06413686 0.054044805
-0.12814033 -0.06622763 0.027474493 0.28810304 -0.12227927 -0.16422422 -0.018709848 0.43358502
0.005659856 0.19947559 -0.0086053675 -0.20697121 0.28595218 -0.107658945 0.1903365 -0.033985604
-0.3488673 -0.022261111 -0.05981935 0.3026497 0.08979383 -0.1389672 0.2440717 -0.13144383
00000000: 6e1e 1ebe 1677 0ebe 8315 70bd c330 c73d
00000010: 8c77 5e3e 79f8 73be 3a94 0d3e e3d4 fb3d
00000020: 08a5 483e 9b26 063f 5a6e 503d 0994 a2bc
00000030: 22f8 1a3e 2c12 78bc 6034 9ebd 5bdc 593e
00000040: ef47 48be cb07 aabe 69c8 91bb 66e7 8a3e
00000050: bb36 9bbd 0170 a7bd 6f1f 1cbe f036 06be
00000060: e269 1abe 9951 293d 6c03 e4be b7d9 0a3e
00000070: c4cb 083f 8ffb d53d 887b 6cbd 6ea4 313e
00000080: e906 21be 015e afbd 11d4 a33e fd00 9abe
00000090: 1c70 04bc 6fb8 213e 191d 933e ceab c9bd
000000a0: 6002 12be e053 ed36 9d58 3c3e 199e 463e
000000b0: 334d 7bbd 4301 d2bc db34 413c 8423 2cbb
000000c0: 127d 0abd 2bd9 f8bd 96f9 8abd e9a7 063e
000000d0: b703 103e 1906 d7bd 2e29 7c3d 2320 78bd
000000e0: cc99 e33c 8682 8f3b 28da 42be 4e86 25bd
000000f0: c38c 1c3d da66 eebd 814b 853e 2a29 a7bd
00000100: 8c32 30be a7b5 243e b323 a93c 8b70 36bd
00000110: 2503 07be bf39 4d3e 8651 7bbd 401b 1c3e
00000120: 7db2 61bd 3c52 5dbe 3565 3abe e658 8c3e
00000130: c114 febd 67bc 91bd 1d6b 1b3e a9dd 24be
00000140: 047b 1d3e 84d5 7d3e f8ee 453e 5db4 f13d
00000150: 447f a6bd 60e3 2f3d d852 44be 28de 963e
00000160: 7c19 963d 3777 66bc ec4b 383e 1ba3 35be
00000170: 1044 013e ebb4 cbbd f3fb 833e 78a7 213e
00000180: 46be ae3d d17b 6fbe 4437 94bd 8f2e 303d
00000190: f8c0 a8be 4483 a6be 908d d5bb a5f5 d23c
000001a0: 9342 913d b73b bb3e 4fd1 033d df83 2cbd
000001b0: cfce cbbd a8ac 523e ef25 03be 7e5e 4dbe
000001c0: f0eb 923e 3549 9cbe 77a4 6d3e f4f9 433c
000001d0: c15e 8a3d 0bdf db3c e56b 80bd 999d 533e
000001e0: 8504 023e ea86 32be 3fb6 6c3e f17d 96bc
000001f0: abe6 93be 9906 2d3d 28a3 e7bd ae42 0dbe
00000200: cb7c 5cbe fdc1 b33d 6da0 6abe 224b 8b3e
00000210: a22a 2d3e 66c1 b1be 50c4 cfbd d845 adbc
00000220: fb28 ccbc 663f 9c3d 758a 24be 32b5 f4bb
00000230: e344 96bc 61d8 66be 7b90 f1bd afb3 60be
00000240: 10cd 683d 47c5 153e 5239 50be 2d85 213e
00000250: 80a7 fdbd 0e72 ee3d 1f9b 4c3d 4a5b 043e
00000260: 20c6 12be 6f00 763e 25a6 e23c edc4 47be
00000270: 1c13 143d e157 e33c 4704 1f3e cc76 9f3e
00000280: f754 da3e d3f3 543e a7fa 49be 942b 61bd
00000290: 6fff a3be 804f 723e 6210 103c 664f 323e
000002a0: 6058 8abd 2da3 08be e6f2 5abb 40a1 39be
000002b0: 6109 dabe ad86 66bb 9f5b 073d 1a32 dc3e
000002c0: a961 40bd c200 65bd cb3e 04be 6c19 903e
000002d0: c09d 81bd f7e6 173d e7f3 dfbd bd6f 863e
000002e0: 5178 853e 87f4 d2bd 5831 afbd 59da 1b3b
000002f0: d861 f63d 62d0 9d3e 01be fabd 50d4 943d
00000300: bd27 5e3d bf1e 8a3d 64ff 12be 55a1 193e
00000310: e74b d13d f054 d63d 11c0 a5bd 8e07 b0bd
00000320: ee85 4b3d 6406 e53d 42fc e7bd 9470 2dbe
00000330: 8f86 58be f427 70bd da21 85be a0f2 bdbd
00000340: bb01 83bc eb61 cd3c 4865 b93d 44c5 603e
00000350: 3452 f63d 783a a0be 5624 b7bd a2d2 8fbe
00000360: 5206 2f3e 2c8a 61be ed75 e63e 8b6f a03d
00000370: 24e8 773c 022f 313e fa87 843e 8a73 f6bc
00000380: 29f6 233e 9f98 8b3d 7bf6 abbd 969e d43d
00000390: cf6a a5bc 1462 53be 305a 833d 165e 5d3d
000003a0: 3837 03be 5aa2 87bd 3012 e13c 3e82 933e
000003b0: 8e6d fabd 652a 28be 6545 99bc dbfe dd3e
000003c0: 5076 b93b 5443 4c3e 87fd 0cbc 43f0 53be
000003d0: 5368 923e 4b7c dcbd 92e7 423e 7d34 0bbd
000003e0: bc9e b2be ef5c b6bc 2205 75bd e7f4 9a3e
000003f0: d4e5 b73d 6b4d 0ebe efed 793e 3699 06be

sequential/dense_2/MatMul f4 [17, 64]
-0.565069 -0.6813348 -0.28470564 -0.0063355635 -0.39425758 -0.5137426 0.36370564 -0.44458398
-0.46259594 0.5956753 0.29531714 -0.24442367 0.37856942 -0.0503997 0.34596217 -0.37129924
0.55114096 -0.07618578 0.58095384 0.46623206 -0.3732712 -0.39479658 0.2291942 -0.5155372
0.62475437 -0.086286366 0.0007015623 0.6314173 0.423562 -0.66453975 -0.08680761 -0.5610486
0.5958723 -0.27890342 -0.043000117 -0.47148144 -0.26493225 0.7004473 -0.47315854 -0.10635093
-0.02552205 0.08078157 -0.4197136 -0.6269571 -0.06314604 0.018654268 0.07996034 0.481194
-0.06687889 0.6921578 0.30926645 0.47991848 -0.57974666 -0.3914792 0.5567068 0.41404337
0.28375098 0.55036014 -0.47769663 -0.15716283 0.47609308 -0.056225352 0.3938457 -0.47485486
0.60576636 0.57128924 -0.4216108 0.1600231 -0.1466198 0.451354 -0.42684275 0.51511985
-0.41805747 -0.2757844 -0.38510633 0.04690362 0.5597125 0.22172658 -0.39628294 -0.23581396
-0.38986212 0.636176 -0.30604056 -0.36599058 -0.010523359 0.5860532 0.118091226 0.39292946
-0.4117369 0.5369165 0.42004117 -0.51148427 -0.15593149 0.34786156 -0.18575884 0.35052943
0.070717804 -0.10216304 -0.05302955 0.55009425 0.30511364 -0.3933884 0.5121337 0.07729081
0.17708293 -0.02509266 -0.41007996 0.08298621 -0.0020597565 0.4200234 -0.08443026 -0.35517058
0.7571385 -0.22445801 0.14927185 -0.4769585 -0.5875161 -0.34288722 -0.33663115 0.37382177
-0.4112213 0.3613801 -0.4332601 0.024935229 -0.5862053 0.05427611 -0.43598947 0.6112194
-0.6160199 0.60213345 0.6497515 -0.5029394 0.54626113 -0.37652123 -0.40476885 0.40713483
-0.32077083 -0.39374495 -0.73206013 -0.4028614 0.72328395 -0.21895553 -0.5635798 -0.452001
0.49130857 -0.31331214 0.59814715 -0.31059912 0.10814212 -0.5266948 0.08686517 -0.89214617
0.57938933 -0.27291152 -0.5997914 -0.27370596 0.56443244 0.5323932 -0.13699122 0.43228927
-0.42439663 -0.4453762 -0.4128493 -0.3177327 0.5868595 -0.30059686 0.5588968 -0.21657752
-0.35480195 -0.42429185 -0.23062502 -0.59542966 -0.57868505 -0.14168917 -0.36979616 -0.77810645
-0.14468445 -0.25068992 0.17547797 -0.23614709 0.34020376 0.0040823002 0.025240578 0.6372884
-0.42693305 0.6354568 0.5844917 -0.30163574 0.64998704 0.15717292 0.4295541 -0.26561114
-0.22090909 -0.28009915 -0.33028334 0.4329748 -0.22432533 -0.40585113 0.10691195 -0.40361565
0.3239947 0.67560756 0.44882432 0.7599347 -0.3744964 -0.30728346 0.69740677 0.2772853
-0.423684 0.011757655 -0.2821602 0.6175858 0.077387705 -0.44038957 -0.018891113 -0.036916375
-0.30618417 -0.038693808 0.48001555 -0.1530082 -0.4653675 -0.2835727 -0.11008042 0.30133528
0.10843327 0.42508435 0.40503788 -0.30876154 0.2970175 0.04647272 -0.65474504 0.8686128
0.32542783 0.64427704 -0.20817927 0.5972132 -0.12080807 -0.25182125 -0.11835537 0.23315729
-0.071428485 0.6343541 0.22969626 0.024785627 0.6027062 0.5745822 -0.49405307 -0.5085932
-0.4617843 -0.5298216 -0.38355997 0.75216335 0.5240034 -0.44327486 -0.4790546 -0.52714765
00000000: 5da8 10bf f56b 2ebf f0c4 91be 8f9a cfbb
00000010: 21dc c9be a384 03bf a037 ba3e 83a0 e3be
00000020: 60d9 ecbe 2d7e 183f cf33 973e 334a 7abe
00000030: dad3 c13e ea6f 4ebd f421 b13e ef1a bebe
00000040: 9317 0d3f 4a07 9cbd 64b9 143f f8b5 ee3e
00000050: 671d bfbe c722 cabe e2b1 6a3e 3ffa 03bf
00000060: e7ef 1f3f e8b6 b0bd 0de9 373a 90a4 213f
00000070: 1edd d83e 471f 2abf 30c8 b1bd e2a0 0fbf
00000080: 168b 183f 6ecc 8ebe e420 30bd 0466 f1be
00000090: 33a5 87be 8450 333f d641 f2be 84ce d9bd
000000a0: 9e13 d1bc cf70 a53d b3e4 d6be 4380 20bf
000000b0: b652 81bd d6d0 983c 3fc2 a33d 0f5f f63e
000000c0: cdf7 88bd 4131 313f 2c58 9e3e e0b7 f53e
000000d0: 476a 14bf f66f c8be 5684 0e3f 7efd d33e
000000e0: cf47 913e 67e4 0c3f a794 f4be 4bef 20be
000000f0: 79c2 f33e 8e4c 66bd 25a6 c93e 2d20 f3be
00000100: 8113 1b3f 0340 123f 5fdd d7be 18dd 233e
00000110: 8023 16be df17 e73e 228b dabe e5de 033f
00000120: a10b d6be 9d33 8dbe a82c c5be 031e 403d
00000130: 5249 0f3f 4b0c 633e 99e5 cabe 3779 71be
00000140: 029c c7be 6edc 223f 59b1 9cbe 1e63 bbbe
00000150: 2b6a 2cbc 9507 163f d0d9 f13d 0d2e c93e
00000160: 2ecf d2be 5c73 093f a30f d73e a2f0 02bf
00000170: 81ac 1fbe e91a b23e 9137 3ebe 9878 b33e
00000180: 7fd4 903d db3a d1bd 8335 59bd fad2 0c3f
00000190: db37 9c3e 346a c9be 321b 033f a54a 9e3d
000001a0: 3a55 353e 1f8f cdbc 00f6 d1be adf4 a93d
000001b0: fbfc 06bb 4f0d d73e c6e9 acbd ebd8 b5be
000001c0: d4d3 413f 52d8 65be b8da 183e e833 f4be
000001d0: 7567 16bf ea8e afbe eb5a acbe 9165 bf3e
000001e0: 998b d2be d006 b93e 45d4 ddbe f744 cc3c
000001f0: 8d11 16bf a050 5e3d 033a dfbe e078 1c3f
00000200: 7bb3 1dbf 6b25 1a3f 1d56 263f a3c0 00bf
00000210: c5d7 0b3f 64c7 c0be dd3d cfbe fa73 d03e
00000220: 133c a4be f098 c9be 4b68 3bbf d943 cebe
00000230: 2329 393f e135 60be c446 10bf ad6c e7be
00000240: cc8c fb3e 736a a0be 2c20 193f d906 9fbe
00000250: 9e79 dd3d 78d5 06bf 5ee6 b13d b163 64bf
00000260: dc52 143f 0fbb 8bbe ee8b 19bf 3023 8cbe
00000270: a57e 103f ec4a 083f 6d47 0cbe 0555 dd3e
00000280: 844a d9be 5908 e4be fc60 d3be dcad a2be
00000290: 6d3c 163f d5e7 99be dc13 0f3f 7fc6 5dbe
000002a0: 9aa8 b5be c83c d9be f728 6cbe 146e 18bf
000002b0: b424 14bf f716 11be ec55 bdbe fc31 47bf
000002c0: 2928 14be 6e5a 80be 7fb0 333e 8bd0 71be
000002d0: 302f ae3e d1c4 853b 54c5 ce3c 5525 233f
000002e0: f896 dabe 4cad 223f 40a1 153f 0070 9abe
000002f0: 8d65 263f f0f1 203e 84ee db3e 2ffe 87be
00000300: fe35 62be 2869 8fbe e61a a9be dfae dd3e
00000310: 8ab5 65be b8cb cfbe a7f4 da3d b6a6 cebe
00000320: a2e2 a53e 9ef4 2c3f 4dcc e53e 158b 423f
00000330: febd bfbe 4254 9dbe 4089 323f 57f8 8d3e
00000340: 1ced d8be 2ea3 403c 4d77 90be 1a1a 1e3f
00000350: 727d 9e3d be7a e1be 89c1 9abc a035 17bd
00000360: 2cc4 9cbe 667d 1ebd 99c4 f53e 2eae 1cbe
00000370: a644 eebe 7130 91be d871 e1bd 9e48 9a3e
00000380: 4312 de3d a8a4 d93e 2061 cf3e fe15 9ebe
00000390: ae12 983e 2e5a 3e3d 5f9d 27bf 695d 5e3f
000003a0: 7a9e a63e 57ef 243f f22c 55be f7e2 183f
000003b0: 396a f7bd b7ee 80be 4d64 f2bd c9c0 6e3e
000003c0: 1949 92bd 0865 223f 7f35 6b3e 3a0b cb3c
000003d0: f44a 1a3f d217 133f 86f4 fcbe 2a33 02bf
000003e0: fe6e ecbe 63a2 07bf f961 c4be c78d 403f
000003f0: 1625 063f ecf4 e2be a546 f5be 26f3 06bf
