chat-ai.tflite (tflite, 78116 bytes, 6 tensors)

sequential/dense/BiasAdd/ReadVariableOp/resource f4 [128]
0.16964632 0.059684716 0.24122342 0.20428483 -0.05975731 0.08366588 0.1261534 0.19258866
0.15437374 0.12021697 -0.097099744 -0.005694316 -0.109942414 -0.02360934 -0.08265078 0.0424432
-0.036747407 -0.016902389 -0.057236556 -0.04807915 0.08193619 0.1811095 0.20171261 -0.07077906
0.14019974 0.0011483161 -0.05060071 0.0028973934 -0.07700836 -0.0020075145 0.06672468 0.05602645
0.22459033 0.12581643 -0.07113614 -0.15018101 -0.033372007 0.16381729 -0.04099009 0.28679565
0.08159699 0.014217218 0.0010657795 -0.07668167 0.19450454 -0.0026757508 -0.011734677 0.0731101
0.2795506 0.24690393 0.10674908 0.06450351 -0.06410358 -0.13572699 0.14389805 -0.03194392
0.0436908 0.111349806 0.008691291 0.06363335 0.1785238 -0.012296567 -0.033461966 -0.12529609
0.12799592 -0.002273096 0.011676991 0.01433191 -0.1069994 0.04194736 -0.07946367 -0.027920427
0.090288065 0.17052902 0.23695102 0.13375938 0.14616218 0.20189518 0.062820144 -0.050542932
0.10617191 -0.013360613 0.031536013 0.14480099 -0.14296994 -0.022891257 -0.0013457926 -0.026720677
-0.00908163 0.07386556 0.107165284 0.058008682 0.08857556 0.17234047 0.19781542 0.104646616
0.090923406 -0.043136675 -0.0154391965 0.06386799 -0.007522682 0.09245534 -0.051260028 -0.17600007
0.02400131 -0.03859092 0.03642631 -0.09265859 0.097011454 0.01135938 0.028964285 0.046413444
0.011073918 -0.063975096 0.14101343 -0.10670347 -0.15170464 0.097458534 0.10884794 0.19210088
0.219138 0.013406616 0.010934376 0.091398716 0.22851214 -0.1135128 0.078478485 -0.17988406
00000000: c4b7 2d3e f677 743d 4603 773e 0b30 513e
00000010: 15c4 74bd 0459 ab3d 5b2e 013e f635 453e
00000020: 2614 1e3e 5134 f63d 3bdc c6bd 6297 babb
00000030: 7d29 e1bd 6068 c1bc d044 a9bd ecd8 2d3d
00000040: 7384 16bd e176 8abc e170 6abd a5ee 44bd
00000050: 29ce a73d c574 393e c08d 4e3e 9df4 90bd
00000060: 8590 0f3e 1883 963a b142 4fbd 32e2 3d3b
00000070: 8fb6 9dbd 8190 03bb f3a6 883d fe7b 653d
00000080: 02fb 653e 06d6 003e d3af 91bd 0dc9 19be
00000090: 16b1 08bd b8bf 273e 3ae5 27bd e1d6 923e
000000a0: 531c a73d 56ef 683c a0b1 8b3a 480b 9dbd
000000b0: 332c 473e a65b 2fbb cd42 40bc c0ba 953d
000000c0: 4221 8f3e 62d4 7c3e 439f da3d 6b1a 843d
000000d0: bd48 83bd 04fc 0abe 035a 133e a1d7 02bd
000000e0: 20f5 323d 5e0b e43d eb65 0e3c 3452 823d
000000f0: f1ce 363e 8a77 49bc 6a0f 09bd 9e4d 00be
00000100: 5d11 033e 39f8 14bb da50 3f3c 63d0 6a3c
00000110: 8022 dbbd ffd0 2b3d d9bd a2bd 61b9 e4bc
00000120: f3e8 b83d 299f 2e3e 4aa3 723e 38f8 083e
00000130: 8aab 153e 9cbd 4e3e d9a7 803d 1b06 4fbd
00000140: a970 d93d 79e6 5abc e82b 013d b646 143e
00000150: b666 12be 7286 bbbc 4e65 b0ba 52e5 dabc
00000160: 1ecb 14bc d446 973d 7979 db3d 839a 6d3d
00000170: 1a67 b53d 057a 303e 2090 4a3e f750 d63d
00000180: 0d36 ba3d 15b0 30bd aff4 7cbc 39cd 823d
00000190: d580 f6bb 3a59 bd3d 09f6 51bd 5d39 34be
000001a0: 659e c43c 8311 1ebd c133 153d c9c3 bdbd
000001b0: f1ad c63d b11c 3a3c 8246 ed3c 061c 3e3d
000001c0: 616f 353c 6005 83bd d365 103e 5987 dabd
000001d0: 7658 1bbe 5798 c73d abeb de3d 18b6 443e
000001e0: b665 603e 6ca7 5b3c 1926 333c 402f bb3d
000001f0: 16ff 693e 6679 e8bd 54b9 a03d 8733 38be

sequential/dense_1/BiasAdd/ReadVariableOp/resource f4 [64]
0.0022429894 0.1442684 0.17434287 -0.13761598 -0.0017666745 0.29477838 0.08769312 0.43940243
0.07178972 0.34138495 0.10658372 0.53328 0.13582763 0.031497713 -0.14060646 0.08171415
0.37275648 0.047846504 0.051037923 0.090589926 0.55851537 -0.2316123 0.20775284 0.23529643
-0.05919357 0.07590878 -0.067824826 -0.06455944 0.060852956 0.31287512 0.18039349 -0.069238506
0.17276505 0.021541096 -0.08133347 0.18310486 0.01202625 0.28810138 -0.124401875 -0.07669859
-0.16342579 0.101703845 0.26382634 0.21893702 0.0043523735 0.053035803 0.01935351 0.03007104
0.071503356 0.14977072 0.03594237 -0.19222115 0.45297396 0.088404156 0.15017384 -0.1316402
0.04762173 0.00034007872 0.16587405 0.17058101 -0.14846087 0.061315622 0.11712525 -0.0097334115
00000000: 1eff 123b 18bb 133e f086 323e 34eb 0cbe
00000010: c28f e7ba 31ed 963e 7398 b33d 5bf9 e03e
00000020: 7d06 933d 02ca ae3e 9148 da3d 0a85 083f
00000030: 6616 0b3e bf03 013d 24fb 0fbe c059 a73d
00000040: f0d9 be3e b2fa 433d 240d 513d 3687 b93d
00000050: ddfa 0e3f c62b 6dbe 29bd 543e 8cf1 703e
00000060: f574 72bd 1076 9b3d bee7 8abd bd37 84bd
00000070: f340 793d 2b31 a03e 12b9 383e ebcc 8dbd
00000080: 52e9 303e f476 b03c 2a92 a6bd d77f 3b3e
00000090: c009 453c 0682 933e 69c6 febd 2614 9dbd
000000a0: 1759 27be 1b4a d03d 3f14 873e 0731 603e
000000b0: 5b9e 8e3b 123c 593d 418b 9e3c 8b57 f63c
000000c0: 5a70 923d 7f5d 193e 4e38 133d 9fd5 44be
000000d0: 34ec e73e 3d0d b53d 2cc7 193e b0cc 06be
000000e0: 010f 433d 984c b239 e3da 293e caac 2e3e
000000f0: 2006 18be 1726 7b3d 5ddf ef3d e378 1fbc

sequential/dense_2/BiasAdd/ReadVariableOp/resource f4 [13]
-0.28201988 -0.18645057 0.9426079 0.45139274 -0.23670696 0.5738551 -0.6595976 -0.041037034
-0.19064471 -0.025590286 -0.09425307 -0.092535205 -0.15902415
00000000: e964 90be e6ec 3ebe c04e 713f f31c e73e
00000010: 4f63 72be 2be8 123f 63db 28bf 7316 28bd
00000020: 5e38 43be b8a2 d1bc c107 c1bd 1983 bdbd
00000030: 3ad7 22be

sequential/dense/MatMul f4 [128, 77]
-0.17532825 -0.15728173 -0.11687211 0.22735785 0.15341198 -0.004086533 -0.298605 0.054285932
-0.15279527 0.06754697 -0.03132305 0.066041104 0.3753068 0.024614973 0.0008653358 0.12274892
0.04360426 -0.16242103 -0.10933139 -0.10633395 0.2700215 -0.17031333 -0.063909955 0.0730218
-0.20716114 0.061874483 -0.16665544 0.013990902 -0.018610701 0.026253657 -0.1611241 0.04503167
-0.09662753 0.11478553 0.118110605 -0.0029052908 -0.057877697 0.08924389 -0.06795178 0.21293771
-0.06240773 -0.18506911 -0.019732326 0.01444399 -0.27038884 -0.07991478 0.14839002 0.05098729
-0.11166656 -0.1097651 -0.12172456 0.031596977 0.09047737 -0.15323405 -0.103436075 -0.0334737
-0.09444421 0.1564564 -0.12565412 -0.15047735 -0.106363006 0.1762906 0.32634306 0.1496175
-0.07041585 0.49060038 0.0346088 0.1962796 -0.022561619 -0.05987534 0.019063925 0.23314346
0.037642505 -0.027210794 -0.069243275 -0.021698471 0.02445541 -0.09673837 -0.1283949 -0.34120107
-0.16524528 -0.14328513 -0.12572058 -0.15434642 -0.044484634 -0.007282719 -0.15790962 0.13375401
0.15275611 -0.21216008 0.1251146 0.1349229 -0.1342533 0.038687803 -0.049697034 -0.052511774
-0.033157527 -0.038136512 0.18701807 -0.041628066 -0.19276232 0.36187786 0.51581275 0.3740224
0.3434014 0.055982698 -0.16829062 -0.19570975 -0.12559414 0.019846855 0.093963556 -0.031290673
0.03100348 -0.059334494 -0.05532732 0.07676911 -0.042891458 -0.017897896 0.10708282 0.03893673
0.05452551 0.14282355 -0.18285471 0.019473573 0.19662043 -0.17460553 0.21619058 -0.16160549
0.14192125 0.23403187 -0.42703345 0.020089502 -0.0061711073 0.06029013 -0.06352576 0.01992453
-0.042963654 0.120316096 -0.1731622 -0.072265685 -0.10740946 -0.09115644 -0.16997273 0.25205547
-0.0068020993 0.026378307 0.32946905 0.2801507 0.06113049 0.21589428 -0.1536381 -0.15422934
-0.19903484 -0.10086818 -0.16527767 -0.15290245 -0.060394093 0.045321915 0.047429617 0.12805887
-0.11392008 0.018470706 -0.07881622 -0.11944372 0.101578936 -0.051969882 -0.2997137 -0.024692297
0.0052011074 0.13954714 -0.14916937 -0.050275028 -0.16792658 -0.015656242 0.071726605 0.27034166
-0.16285084 0.09145563 -0.081421226 -0.22718666 0.16823348 0.2233955 -0.055638205 0.08346587
-0.1772743 0.03644565 -0.20880485 0.046821576 -0.14210838 -0.039591506 0.27449962 0.21293066
0.11174484 -0.16851138 0.03978986 0.36633587 -0.078940295 0.15071023 0.19513527 -0.18806173
-0.07512329 -0.064849876 0.043858223 -0.04535909 -0.03135395 -0.016520897 0.07897466 -0.39669627
-0.07720949 0.012790917 -0.009827064 0.28063914 -0.096330605 -0.09607046 0.14812836 0.17958887
-0.30855626 -0.32272866 0.18629502 -0.10692142 0.16459817 -0.18747702 0.021678431 0.28928056
0.10434004 -0.053715505 0.034888085 0.021408198 -0.053907905 -0.05466925 -0.21342042 0.0355378
-0.1444797 0.042698406 0.15671162 0.15895046 -0.0045311362 0.022195999 -0.32014468 0.06103439
-0.104649216 -0.1799003 -0.007214442 -0.035875797 -0.22672667 0.14701281 0.11097062 0.05359864
0.15614675 0.12621804 0.3934328 0.068801895 0.13503666 -0.26939073 -0.031152407 -0.103755325
00000000: 4089 33be 760e 21be a55a efbd 7fd0 683e
00000010: 0818 1d3e 53e8 85bb c1e2 98be ed5a 5e3d
00000020: 5d76 1cbe 1156 8a3d 994c 00bd 8f40 873d
00000030: 3628 c03e 57a5 c93c b4d7 623a c963 fb3d
00000040: 619a 323d b351 26be 23e9 dfbd 9dc5 d9bd
00000050: 4240 8a3e 9e66 2ebe 39e3 82bd 748c 953d
00000060: 0d22 54be 1970 7d3d b9a7 2abe 193a 653c
00000070: 7875 98bc e911 d73c b7fd 24be 2173 383d
00000080: a8e4 c5bd ad14 eb3d f9e3 f13d b166 3ebb
00000090: 2a11 6dbd 80c5 b63d 4e2a 8bbd 580c 5a3e
000000a0: 3f9f 7fbd c282 3dbe b0a5 a1bc 7ca6 6c3c
000000b0: 6870 8abe 5caa a3bd 8ef3 173e 0cd8 503d
000000c0: 70b1 e4bd 86cc e0bd ba4a f9bd d56b 013d
000000d0: 334c b93d 63e9 1cbe 4bd6 d3bd b81b 09bd
000000e0: f76b c1bd 1b36 203e 79ab 00be bc16 1abe
000000f0: d9d4 d9bd 8685 343e 7016 a73e 5435 193e
00000100: 2f36 90bd f92f fb3e f5c1 0d3d 85fd 483e
00000110: 25d3 b8bc d83f 75bd f32b 9c3c 29bd 6e3e
00000120: 072f 1a3d 2ce9 debc 6bcf 8dbd fec0 b1bc
00000130: b656 c83c c41e c6bd f479 03be e8b1 aebe
00000140: 0f36 29be 56b9 12be e5bc 00be fd0c 1ebe
00000150: 8535 36bd e0a3 eebb 0fb3 21be d0f6 083e
00000160: 196c 1c3e 7e40 59be 0b1e 003e 3b29 0a3e
00000170: b279 09be 1a77 1e3d 1e8f 4bbd 9616 57bd
00000180: 30d0 07bd 0835 1cbd aa81 3f3e 3182 2abd
00000190: 7c63 45be 0e48 b93e 4e0c 043f dd7f bf3e
000001a0: 4fd2 af3e 1d4e 653d 6054 2cbe 2368 48be
000001b0: c09b 00be df95 a23c f76f c03d a62a 00bd
000001c0: 03fb fd3c ba08 73bd e69e 62bd 2039 9d3d
000001d0: f4ae 2fbd 9c9e 92bc 3d4e db3d 1f7c 1f3d
000001e0: 2456 5f3d 5640 123e 443e 3bbe 0b87 9f3c
000001f0: de56 493e cbcb 32be 1061 5d3e e97b 25be
00000200: ce53 113e 0da6 6f3e 21a4 dabe bd92 a43c
00000210: 0037 cabb c9f2 763d cb19 82bd c538 a33c
00000220: a8fa 2fbd 4968 f63d 6f51 31be 0800 94bd
00000230: 7ef9 dbbd 3ab0 babd 550d 2ebe 6a0d 813e
00000240: 25e4 debb 5217 d83c 2bb0 a83e ea6f 8f3e
00000250: f763 7a3d 6413 5d3e 4e53 1dbe 4cee 1dbe
00000260: cacf 4bbe fa93 cebd 8d3e 29be 7692 1cbe
00000270: cc5f 77bd 79a3 393d 8f45 423d dd21 033e
00000280: ee4e e9bd e14f 973c 666a a1bd e99e f4bd
00000290: 9e08 d03d 5fde 54bd 1374 99be 8047 cabc
000002a0: 0d6e aa3b 72e5 0e3e dbbf 18be 30ed 4dbd
000002b0: f2f4 2bbe 8541 80bc 66e5 923d 396a 8a3e
000002c0: 5fc2 26be 174d bb3d 2cc0 a6bd 9fa3 68be
000002d0: 6645 2c3e cac1 643e e3e4 63bd 27f0 aa3d
000002e0: 6587 35be 0948 153d f0d0 55be fbc7 3f3d
000002f0: dc84 11be b42a 22bd 378b 8c3e 7f0a 5a3e
00000300: 7bda e43d 3f8e 2cbe b1fa 223d 6090 bb3e
00000310: 73ab a1bd c853 1a3e 8ad1 473e 4193 40be
00000320: 3dda 99bd 03d0 84bd aea4 333d 74ca 39bd
00000330: 006d 00bd d556 87bc 77bd a13d c61b cbbe
00000340: 0220 9ebd ff90 513c b201 21bc efaf 8f3e
00000350: fb48 c5bd 97c0 c4bd f6ae 173e 25e6 373e
00000360: 16fb 9dbe b13c a5be 1fc4 3e3e 9ef9 dabd
00000370: 6c8c 283e faf9 3fbe f796 b13c 951c 943e
00000380: 3bb0 d53d ca04 5cbd cfe6 0e3d 3f60 af3c
00000390: 89ce 5cbd ddec 5fbd e28a 5abe 1690 113d
000003a0: 7df2 13be 86e4 2e3d 0379 203e e9c3 223e
000003b0: ed79 94bb 62d4 b53c 01ea a3be 32ff 793d
000003c0: 5452 d6bd c937 38be 2067 ecbb 80f2 12bd
000003d0: 092b 68be 878a 163e 9044 e33d 3f8a 5b3d
000003e0: efe4 1f3e 4d3f 013e 0670 c93e 02e8 8c3d
000003f0: 0d47 0a3e 95ed 89be 5533 ffbc ac7d d4bd

sequential/dense_1/MatMul f4 [64, 128]
-0.04021551 -0.14212967 -0.31539312 -0.102830894 0.0006156003 -0.1885891 0.2873528 -0.13829462
-0.17024101 -0.18398243 0.61696136 0.06252084 0.2627877 -0.050402988 0.24050108 -0.020844152
0.15904982 0.09868169 0.07813781 -0.11235393 -0.16478838 -0.14872037 -0.021473313 -0.16702452
-0.054422252 0.10413258 -0.18907066 0.08970962 -0.15296705 -0.06273334 -0.08948024 0.10824266
0.07369098 -0.08764402 -0.005144449 0.19957913 0.15540814 0.13479045 -0.022868954 -0.20480824
0.018908363 0.0367699 -0.2250368 0.059093997 -0.00789454 -0.017444847 0.05743185 -0.2206603
0.20404252 -0.2068355 0.08197351 -0.018131228 0.2819829 0.21212517 -0.09983259 0.055605844
0.07688671 0.21633464 0.08028899 -0.12593094 0.06285969 0.20188034 0.08980585 0.15223773
-0.008097522 -0.07279245 0.23553854 -0.11604016 0.12426352 0.35332403 0.3599968 0.08832698
-0.08681092 0.21150021 -0.08311859 0.080199175 0.1135696 -0.1408802 -0.1866607 0.22589329
-0.14456724 0.1343217 -0.044078074 0.091526635 0.1879876 0.13634907 0.178478 0.1819359
0.15929842 -0.027982375 -0.1861426 0.19025896 -0.05397604 0.13835415 -0.26519287 -0.08477494
0.044583946 0.09579214 -0.10339769 0.18055011 0.12749995 -0.27454457 -0.20640932 0.18971214
-0.17801102 0.23318675 0.15792958 -0.09156172 -0.1485008 -0.11208521 -0.028632317 -0.040271245
-0.02061982 0.23484233 -0.27082735 0.14473216 0.19902231 0.069895774 0.11371742 -0.11866321
-0.03387673 -0.12665065 0.19391523 -0.1597484 -0.02510334 0.241665 -0.0036400245 0.037932478
0.12118609 -0.104675315 0.041291982 0.1932163 -0.119008236 0.15927789 -0.31590092 -0.1118233
-0.09521718 -0.059016313 -0.3078331 -0.075887896 0.036389053 -0.03982204 0.03378277 0.15647732
-0.17116566 -0.0030554142 -0.13896842 0.2897993 0.38945895 -0.10405231 -0.099002086 0.15560073
0.118397705 0.12199355 0.067697346 0.1735927 -0.24759223 -0.027898962 -0.029875606 -0.1680659
-0.22878025 0.04717287 -0.15225303 -0.04679791 -0.11171147 -0.16625838 -0.04805127 0.07534678
0.18407354 0.025708446 -0.21479541 -0.0664504 0.13066788 -0.04152984 -0.07632256 -0.013931028
0.05797524 0.00040952762 -0.004052897 0.03753131 0.11321623 0.113998555 0.001694629 -0.06642831
-0.17552848 -0.046553213 -0.10214543 0.10572333 0.08161345 -0.026563445 -0.07214087 0.056835026
-0.20270173 -0.060710955 0.05070154 0.011993494 -0.0759189 -0.018782161 -0.014244973 -0.21745962
0.22448632 0.13367963 0.12307737 -0.18324895 -0.042749535 0.18958533 -0.012722366 -0.25898957
0.2798656 0.15245631 0.033691414 -0.24345921 -0.039786793 0.1561409 0.092474654 -0.06443784
-0.051519357 -0.10253118 -0.111676246 -0.17422877 0.285462 0.16717882 -0.18680224 -0.23268065
0.14413105 0.10609409 -0.11783015 -0.13174511 0.18219979 -0.015926113 0.028230054 -0.16049218
-0.08698918 -0.06690236 -0.06074182 -0.15776725 0.16929856 0.24792866 0.09962891 0.3059069
0.09895255 -0.04833269 -0.11864287 -0.05528548 -0.22313887 -0.37725484 0.16797517 0.31047758
0.32008743 0.21012826 -0.13867828 0.06745867 0.15702598 -0.022847693 0.10198168 0.23266844
00000000: 05b9 24bd 718a 11be 357b a1be 0199 d2bd
00000010: 3d60 213a 801d 41be e81f 933e 1b9d 0dbe
00000020: a953 2ebe e465 3cbe 2ef1 1d3f ed0a 803d
00000030: 1c8c 863e 5d73 4ebd ea45 763e 5bc1 aabc
00000040: f5dd 223e a019 ca3d b706 a03d d119 e6bd
00000050: 49be 28be 274a 18be cde8 afbc 7a08 2bbe
00000060: dee9 5ebd 7643 d53d bd9b 41be adb9 b73d
00000070: 65a3 1cbe 567a 80bd 6b41 b7bd 54ae dd3d
00000080: 4ceb 963d b57e b3bd c492 a8bb 795e 4c3e
00000090: 5023 1f3e 8206 0a3e ac57 bbbc 40b9 51be
000000a0: b6e5 9a3c 099c 163d 0c70 66be 8c0c 723d
000000b0: 1a58 01bc 7fe8 8ebc a93d 6b3d c6f4 61be
000000c0: 86f0 503e afcc 53be bae1 a73d f187 94bc
000000d0: 1060 903e 5737 593e 0775 ccbd f4c2 633d
000000e0: c876 9d3d d486 5d3e 8e6e a43d 0af4 00be
000000f0: 95bc 803d b8b9 4e3e 21ec b73d 35e4 1b3e
00000100: 78ab 04bc 3514 95bd 0431 713e 77a6 edbd
00000110: df7d fe3d e3e6 b43e 8051 b83e c7e4 b43d
00000120: ecc9 b1bd 8393 583e 143a aabd 773f a43d
00000130: 2e97 e83d e642 10be fc23 3fbe 9250 673e
00000140: 6f09 14be a18b 093e 368b 34bd 5172 bb3d
00000150: d27f 403e 179f 0b3e f0c2 363e 684d 3a3e
00000160: 201f 233e 4b3b e5bc 2a9c 3ebe 3fd3 423e
00000170: fb15 5dbd b6ac 0d3e 5cc7 87be 7c9e adbd
00000180: a89d 363d ab2e c43d 2bc2 d3bd 21e2 383e
00000190: 598f 023e 1b91 8cbe f75c 53be e643 423e
000001a0: 8548 36be 82c8 6e3e 4bb8 213e b684 bbbd
000001b0: 9810 18be ee8c e5bd 528e eabc 76f3 24bd
000001c0: e6ea a8bc 827a 703e e2a9 8abe ab34 143e
000001d0: 81cc 4b3e 8425 8f3d aee4 e83d b205 f3bd
000001e0: 53c2 0abd b5b0 01be b791 463e 1695 23be
000001f0: 85a5 cdbc 0877 773e 7a8d 6ebb 165f 1b3d
00000200: 6a30 f83d 0360 d6bd c821 293d 7eda 453e
00000210: 97ba f3bd be19 233e c4bd a1be 9d03 e5bd
00000220: 3a01 c3bd 17bb 71bd 4d9c 9dbe 1d6b 9bbd
00000230: b00c 153d 6f1c 23bd cd5f 0a3d 973b 203e
00000240: 0d46 2fbe 583d 48bb bd4d 0ebe 9360 943e
00000250: 2a67 c73e 6119 d5bd 9bc1 cabd cc55 1f3e
00000260: 7f7a f23d c1d7 f93d e8a4 8a3d 49c2 313e
00000270: d188 7dbe 5d8c e4bc b0bd f4bc 7819 2cbe
00000280: 5f45 6abe 5738 413d 38e8 1bbe 2aaf 3fbd
00000290: fcc8 e4bd a33f 2abe 69d1 44bd 6a4f 9a3d
000002a0: c67d 3c3e 859a d23c 54f3 5bbe 2617 88bd
000002b0: cdcd 053e 321b 2abd 014f 9cbd f73e 64bc
000002c0: 7277 6d3d deb5 d639 2ace 84bb 6eba 193d
000002d0: e9dd e73d 1378 e93d 501e de3a 910b 88bd
000002e0: bdbd 33be 95ae 3ebd a031 d1bd 7985 d83d
000002f0: f424 a73d 959b d9bc 98be 93bd d8cb 683d
00000300: 0b91 4fbe 0dac 78bd 6bac 4f3d 5c80 443c
00000310: 5e7b 9bbd 0cdd 99bc bf63 69bc bcad 5ebe
00000320: bedf 653e 50e3 083e fd0f fc3d 9da5 3bbe
00000330: 231a 2fbd a822 423e 7871 50bc 489a 84be
00000340: 8b4a 8f3e 821d 1c3e 0200 0a3d 5f4d 79be
00000350: 7af7 22bd 66e3 1f3e 5a63 bd3d fcf7 83bd
00000360: f605 53bd defb d1bd 84b6 e4bd 0769 32be
00000370: 1328 923e ed30 2b3e 1649 3fbe d643 6ebe
00000380: 1797 133e dc47 d93d ef50 f1bd 31e8 06be
00000390: 9592 3a3e 7b77 82bc b742 e73c 1058 24be
000003a0: 6227 b2bd 1b04 89bd 6acc 78bd bd8d 21be
000003b0: 9a5c 2d3e 03e1 7d3e 3e0a cc3d d49f 9c3e
000003c0: a2a7 ca3d 80f8 45bd 08fb f2bd 0773 62bd
000003d0: 847e 64be 8c27 c1be af01 2c3e ebf6 9e3e
000003e0: 80e2 a33e dd2b 573e ae01 0ebe c527 8a3d
000003f0: 6bcb 203e 162b bbbc c5db d03d a340 6e3e

sequential/dense_2/MatMul f4 [13, 64]
0.46235105 -0.39951357 0.62759507 0.29708874 0.67681324 -0.115221955 -0.41994944 -0.47572324
-0.15947682 -0.33319616 0.55533457 -0.53407913 0.6603983 -0.47315976 0.12532188 -0.45463324
-0.62876546 0.5510489 0.48696128 0.28145304 -0.50573575 0.3895845 -0.27247712 -0.5326518
0.48866785 -0.13921072 -0.14187463 -0.2797589 -0.4679403 -0.35701647 0.17842841 -0.046368502
-0.18815441 -0.27355543 0.45238256 -0.5728559 0.59448856 -0.30991498 -0.08232403 0.5253912
0.57742226 -0.11622236 0.43611622 0.16262048 0.508758 -0.39090192 0.3405276 0.5964159
0.30492002 0.0058443537 -0.36114004 -0.327759 0.1632892 -0.06193411 0.16892926 0.18204096
0.16422145 -0.102634594 0.3255713 -0.19039121 -0.20983614 -0.084626906 -0.38592383 0.34201756
0.4210792 -0.093150035 -0.05791858 0.5944995 -0.23952518 0.432308 -0.16851008 -0.61716914
-0.078986965 0.37327126 -0.6646052 -0.45418558 -0.2530518 0.45574754 -0.20282392 -0.5841872
0.24502195 -0.27271855 0.3927291 -0.39890176 -0.39308664 -0.2812413 -0.34827417 0.32732502
0.2763141 0.3893948 0.24967995 -0.20867169 -0.28505337 -0.40255252 -0.5683594 0.31747666
0.34540683 0.49543914 0.6688456 0.13956925 0.6227143 0.15900117 0.43180618 -0.011535652
-0.457503 -0.29460606 0.525067 -0.57336944 0.34432065 -0.621562 -0.38449368 0.4612434
-0.38389227 -0.6072239 -0.1470595 -0.32198983 -0.08269995 0.008703524 -0.28192893 -0.09698335
-0.5803772 0.42023283 0.46683645 -0.03893891 0.68267876 -0.04538393 0.4765161 0.49160773
-0.6431303 0.5448886 0.22698465 -0.41245002 -0.26924744 -0.054117538 -0.17972997 0.5703143
0.28159446 0.657557 -0.085794725 0.585225 0.38466927 -0.22606331 -0.23353921 -0.44602734
0.4722876 -0.14827263 -0.4594961 -0.271157 0.57204086 -0.40611085 -0.5151281 0.6523278
-0.52530885 0.015735349 0.23482808 -0.42249218 -0.37559634 0.69273156 0.25180754 -0.33359486
0.2848832 0.08845166 -0.5014572 -0.38648376 -0.5028333 -0.47419178 -0.08450826 0.22772485
-0.011728693 0.16725495 0.5700607 0.44418654 -0.16158606 -0.46118975 -0.37494949 -0.6091928
-0.1696676 0.42176637 -0.18228039 -0.31813768 0.4108914 -0.3276545 0.03738817 -0.28607896
-0.540631 -0.26286653 0.52197707 0.061573233 -0.1887498 -0.50508857 -0.35342702 -0.4919254
-0.47407356 -0.40059465 -0.22055238 -0.29601604 -0.13446948 0.4120589 0.44052747 0.5969902
-0.029374558 0.48129833 -0.31431642 0.5492621 0.14130092 0.5448798 -0.19458252 0.32209972
0.47507244 -0.17776413 -0.10234718 -0.3464498 0.54345053 -0.503901 0.38634327 -0.14364922
-0.463105 0.07367018 0.0873584 -0.2921542 0.3524826 -0.24782018 -0.57195365 0.47308707
-0.49976948 0.021331837 0.3360597 0.3029244 -0.46289858 0.23335852 -0.5158672 -0.3604085
-0.35420737 -0.18266734 -0.5789411 -0.39985237 -0.49731383 -0.45842075 -0.3485011 0.5917369
0.45101422 -0.32877684 0.234406 -0.4033697 0.26916286 0.027448945 -0.11456478 -0.4630534
-0.0010288926 0.494314 -0.3202206 0.84913343 -0.1761802 0.01857759 0.36977556 -0.43084583
00000000: 47b9 ec3e 0b8d ccbe 12aa 203f 041c 983e
00000010: a243 2d3f 7df9 ebbd 9d03 d7be ff91 f3be
00000020: e44d 23be b098 aabe 682a 0e3f 69b9 08bf
00000030: dd0f 293f ff41 f2be 6154 003e b0c5 e8be
00000040: c6f6 20bf 8a11 0d3f fd52 f93e 9d1a 903e
00000050: e677 01bf 9f77 c73e 1f82 8bbe de5b 08bf
00000060: ac32 fa3e 418d 0ebe 9547 11be 8f3c 8fbe
00000070: df95 efbe ddca b6be f0b5 363e e6ec 3dbd
00000080: 8dab 40be 750f 8cbe b09e e73e afa6 12bf
00000090: 6730 183f 2dad 9ebe 8099 a8bd 0a80 063f
000000a0: f2d1 133f fd05 eebd a04a df3e fc85 263e
000000b0: f73d 023f 4c24 c8be a259 ae3e b6ae 183f
000000c0: 7a1e 9c3e fe81 bf3b 59e7 b8be 07d0 a7be
000000d0: 4935 273e 9fae 7dbd cbfb 2c3e f268 3a3e
000000e0: ab29 283e 1632 d2bd 48b1 a63e eaf5 42be
000000f0: 49df 56be df50 adbd cf97 c5be ed1c af3e
00000100: b197 d73e 72c5 bebd 083c 6dbd 1f31 183f
00000110: 1746 75be 7957 dd3e e88d 2cbe ccfe 1dbf
00000120: ebc3 a1bd 691d bf3e 9123 2abf 038b e8be
00000130: 0190 81be be57 e93e 13b1 4fbe 4b8d 15bf
00000140: 09e7 7a3e c4a1 8bbe ca13 c93e da3c ccbe
00000150: a742 c9be dcfe 8fbe fe50 b2be 2597 a73e
00000160: 0b79 8d3e c15e c73e 1aac 7f3e 08ae 55be
00000170: 84f2 91be 5d1b cebe 0080 11bf 4d8c a23e
00000180: 2ad9 b03e 33aa fd3e 7739 2b3f 3eeb 0e3e
00000190: 346a 1f3f 34d1 223e b315 dd3e 0800 3dbc
000001a0: d53d eabe 9bd6 96be ca6a 063f 57c8 12bf
000001b0: cc4a b03e b01e 1fbf 5bdc c4be 1828 ec3e
000001c0: 878d c4be 0773 1bbf c496 16be dadb a4be
000001d0: 975e a9bd 3a99 0e3c fd58 90be 359f c6bd
000001e0: 9a93 14bf c228 d73e 3005 ef3e 687e 1fbd
000001f0: 09c4 2e3f 80e4 39bd ebf9 f33e 02b4 fb3e
00000200: 30a4 24bf d27d 0b3f aa6e 683e a62c d3be
00000210: cdda 89be 5aaa 5dbd 220b 38be 1e00 123f
00000220: 262d 903e a855 283f 25b5 afbd 4ed1 153f
00000230: 5ff3 c43e 247d 67be e724 6fbe b25d e4be
00000240: aecf f13e c8d4 17be 1343 ebbe 17d5 8abe
00000250: 4571 123f c3ed cfbe 6fdf 03bf f4fe 263f
00000260: a47a 06bf 6be7 803c c676 703e e550 d8be
00000270: 2a4e c0be db56 313f ebec 803e f2cc aabe
00000280: 36dc 913e 2526 b53d 805f 00bf 33e1 c5be
00000290: afb9 00bf 44c9 f2be ab12 adbd b430 693e
000002a0: b429 40bc e244 2b3e 7fef 113f 6b6c e33e
000002b0: d176 25be 1021 ecbe 61f9 bfbe 0ff4 1bbf
000002c0: 58bd 2dbe c3f1 d73e b6a7 3abe f1e2 a2be
000002d0: 5c60 d23e 55c2 a7be 5624 193d f178 92be
000002e0: cb66 0abf 7196 86be 4aa0 053f 3734 7c3d
000002f0: a147 41be 7c4d 01bf 63f4 b4be a5dd fbbe
00000300: c5b9 f2be be1a cdbe 7cd8 61be 6a8f 97be
00000310: 5eb2 09be 62f9 d23e d18c e13e 5ad4 183f
00000320: eaa2 f0bc bc6c f63e 15ee a0be 719c 0c3f
00000330: 30b1 103e 3e7d 0b3f a440 47be 41ea a43e
00000340: b23c f33e cd07 36be 669b d1bd de61 b1be
00000350: 931f 0b3f a8ff 00bf c9ce c53e c818 13be
00000360: 191c edbe 64e0 963d f6e8 b23d 3c95 95be
00000370: 9978 b43e 93c4 7dbe 8e6b 12bf 7838 f23e
00000380: c9e1 ffbe 1bc0 ae3c 0410 ac3e e818 9b3e
00000390: 0b01 edbe 89f5 6e3e df0f 04bf 7787 b8be
000003a0: ab5a b5be 260d 3bbe 7c35 14bf 73b9 ccbe
000003b0: eb9f febe 20b6 eabe bc6e b2be 127c 173f
000003c0: 56eb e63e 7055 a8be 2008 703e 7986 cebe
000003d0: b7cf 893e 9cdc e03c f0a0 eabd 5615 edbe
000003e0: e8db 86ba b916 fd3e f4f3 a3be cf60 593f
000003f0: 9568 34be 0830 983c 3953 bd3e d397 dcbe
