chat-ai.tflite (tflite, 87348 bytes, 6 tensors)

sequential/dense/BiasAdd/ReadVariableOp/resource f4 [128]
00000000: 856b 843c d607 d3bd 2c52 8a3c 7d2a a2bd
00000010: 7369 1e3e da45 393e 7d13 86be fb1d 983d
00000020: eff2 093e 3b40 7f3d 843e 973c 2bef debd
00000030: f657 dd3d 6432 cfbd 04fe 31be f7eb 57be
00000040: 072d 7f3e 83ed 043e 493a b1bd 7bd6 bdbb
00000050: f001 713d 9dff ea3d dba5 eb3c 1de8 953d
00000060: f975 b6ba 4f90 4bbe b72d 0a3e 09ff 86bd
00000070: e2c8 c0bd 2bb7 433d 24c7 23bb cbca a6bd
00000080: 337e 2cbd adf0 08be 9ed1 b83d b367 583e
00000090: b1d4 913d 3113 5f3e 0ed5 dc3d fbc3 6a3e
000000a0: ba0e 76bd d4ea a33d 8753 b83d 3245 ae3d
000000b0: 8f50 193e 26b2 123d 80c2 433c 582e 8b3d
000000c0: 656c debd 7005 613e 7238 023e 9aee 5f3d
000000d0: dbe7 113e 7763 a9bd ad90 b03d 0a40 073e
000000e0: fa28 883c 129d 09bd 71b3 083e 042f a73d
000000f0: 1619 41be 6023 f8bc f7f5 7c3d 80c3 f53d
00000100: b1de e33c 44d5 a5bd be04 af3a 39a5 0b3e
00000110: 4241 1abc ac7b 11be 0521 093e fbba 9f3c
00000120: 46dd 1e3c a790 72bc bf62 b1bd 5092 55bd
00000130: 9311 f6bc adf0 8cbc 2343 943c e9bb 4c3e
00000140: 3689 a9bd 913c adbc 239d 923c 072f 67bd
00000150: b595 1dbe 7d3b 1b3e e90e debd 4b29 93bd
00000160: 19bc 3bbb 65d1 0c3e df10 333e a3a7 ee3d
00000170: 24d2 d43c 24eb 603b 69e6 813d a642 593e
00000180: 223d 183e 6211 313e 7659 25bc 28ed dfbd
00000190: c19a 08be 63dd 96bd 16c5 783d 06bc c3bd
000001a0: 2511 9bbd 3160 873d 422d 0f3e 075e 153e
000001b0: d7c6 c43d c934 813c e5bd d53d 4ac5 19be
000001c0: c732 c2bb f171 1a3d 7b0b 7a3d 1328 b43d
000001d0: 0462 893c 5d28 b2bd 91a8 36be f094 923c
000001e0: 4a45 7b3e 4a77 123c 4b05 3f3e 0bba f5bd
000001f0: 47de 733e 5235 503d 1589 693d 4398 813d
0.01616455 -0.10304229 0.016884886 -0.0791826 0.15469913 0.18093053 -0.26186743 0.07427593
0.13471578 0.062317114 0.018462427 -0.108854614 0.10807793 -0.10117033 -0.17382056 -0.21086107
0.2491952 0.12981229 -0.08653695 -0.0057933903 0.05883974 0.114745356 0.02876561 0.07319663
-0.0013920657 -0.19879268 0.13494001 -0.06591613 -0.09413315 0.047782104 -0.0024990523 -0.081441484
-0.04211254 -0.1337306 0.09024356 0.21133308 0.07120646 0.21784665 0.107828245 0.22926323
-0.060072638 0.08003774 0.090003066 0.08509292 0.14972137 0.035814427 0.011948228 0.06795949
-0.10860518 0.2197473 0.12716845 0.054670908 0.14248602 -0.082709245 0.08621345 0.13208023
0.016621102 -0.03359706 0.13349701 0.081632644 -0.18857226 -0.030290306 0.061758008 0.12000179
0.027816148 -0.08097318 0.0013352854 0.13637246 -0.009414973 -0.14207333 0.13391502 0.019498339
0.00969631 -0.014804996 -0.086614124 -0.052141488 -0.030037677 -0.017204607 0.01809842 0.19993557
-0.08278124 -0.021147044 0.017897194 -0.056441333 -0.1538914 0.15159412 -0.10842688 -0.071856104
-0.002864605 0.13751753 0.17486905 0.11653068 0.02597911 0.0034319842 0.063427754 0.2121683
0.1486707 0.17291787 -0.01009213 -0.10933906 -0.13340284 -0.07366445 0.06073483 -0.09557347
-0.075716294 0.06610144 0.13982108 0.1458665 0.09608238 0.01577224 0.1043661 -0.15016666
-0.0059264633 0.03770632 0.061046105 0.08796706 0.01677037 -0.08699105 -0.1783774 0.017893285
0.2453815 0.008939574 0.18654363 -0.119983755 0.23815261 0.0508321 0.057015497 0.0632787

sequential/dense_1/BiasAdd/ReadVariableOp/resource f4 [64]
00000000: 282b ee3e da2d e83e 82cc 09be f4c2 5f3e
00000010: 36e1 d4bd af72 3c3d 973f 413b c6bf d03c
00000020: bd3b 8f3b 05d2 ce3d fd1b 903e 68b2 d93d
00000030: 0a31 213d e6e3 d3bd 00f0 54be 411b 82bc
00000040: 3414 b13e ab91 9f3e e6bb 1c3e 1610 d33d
00000050: 8960 e13e 6473 ba3d 3ffe 5c3d 8bc7 173e
00000060: e636 103c 6ffc 3bbe c745 dc3c 249b 6c3e
00000070: 2072 d83e aac0 f63e fc6e 8d3c 5192 d33c
00000080: 6a23 9b3d 8ee2 b8bd 9fec cc3e 956e f53d
00000090: 8823 783e a906 b73e 55a6 cebd 62ec ab3e
000000a0: 4fb5 893d 3756 3a3e 2eb4 5c3e a9b2 943e
000000b0: cb42 453e efb6 943c aaee 92bc 041b 6a3e
000000c0: f645 4c3c 351b 08bc bc66 12be 0d9d 01be
000000d0: 33e2 dd3d d53f d63d 7f71 37be fcf0 32bd
000000e0: 3d33 b23c 64ce 463d 1eaa 833e 033f 0b3e
000000f0: 7d48 cf3d 7761 523e c16d 4a3e 0370 0d3f
0.465173 0.45347482 -0.1345692 0.21851712 -0.10394518 0.04600781 0.0029487365 0.02548207
0.004371135 0.10098652 0.28146353 0.106297314 0.039353408 -0.103462026 -0.20794678 -0.015882136
0.34585726 0.31165823 0.15306053 0.103058025 0.44018963 0.0910404 0.053953405 0.14822213
0.008802151 -0.18358015 0.026888741 0.23106056 0.4227457 0.48193866 0.017264836 0.025826605
0.07575114 -0.09027587 0.40024278 0.119839825 0.24232304 0.3574727 -0.10090319 0.33578783
0.06724035 0.18196951 0.21553108 0.29042557 0.19263761 0.018153636 -0.01793607 0.22861868
0.012467852 -0.008307268 -0.14297003 -0.12657566 0.1083416 0.10461394 -0.17914389 -0.04368685
0.021752948 0.048536673 0.25715727 0.13598256 0.10121248 0.20544992 0.1976843 0.5524904

sequential/dense_2/BiasAdd/ReadVariableOp/resource f4 [17]
00000000: 3c54 f03d 294e 5b3e a077 4f3e d3dc d2bd
00000010: 6b18 4e3f a097 283f 9dd1 3abf eb46 1e3e
00000020: 6e3e 2abf dd78 f93e edb6 aa3d 5f0a 49be
00000030: 9e7b 98be 1dee 21be e84a 56bd c87a 56be
00000040: 644c 9fbe
0.117348164 0.21416534 0.20260477 -0.10296025 0.8050601 0.6585636 -0.72976094 0.1545674
-0.6650151 0.48725024 0.083356716 -0.19632863 -0.29781812 -0.1581349 -0.05231753 -0.20945275
-0.3111297

sequential/dense/MatMul f4 [128, 93]
00000000: a588 c33d 69e3 3e3d ee6b edbd cacd 193e
00000010: c2f3 e7bd 3a0d 7d3d 8c47 e13d 031b d13d
00000020: 4932 423e 156f 49be 9cd9 74bd 99ac 003e
00000030: 2007 0dbe 99f7 d4bd 7bc5 e3bd cecf 3c3e
00000040: f1ea 0d3d cc5e 7fbe 052c 0abe 7de8 26be
00000050: 581d c93b 0fc9 18be 7e3c 11bc 0677 1cbe
00000060: 0ecf 1cbe f54f 82be 0cf7 7dbe b7e9 c13e
00000070: 8414 223e eee6 cbbd 4c77 ef3d a03a 72bc
00000080: b492 cc3d 6c1f a23d 001a 05be c314 033d
00000090: 8242 56be f24c 03be 2f43 593d 7b5d 87be
000000a0: 6a11 443d 5db9 e93e 9ed8 223c efd2 af3c
000000b0: 33de 723b 11ee cfbc f36b 49bd 3d0b debd
000000c0: 8f44 80bd 754e b63d 4f90 e23d f83f 43be
000000d0: ba10 d7bc a102 8dbe b737 6bbe 8a47 11be
000000e0: 042e 00be d45f 093d afd1 6a3d 18d5 0a3e
000000f0: bd8a f23c c9be 13be 9c5f 27bd 2cc9 c63d
00000100: e9bc 02bd 8acd 26be 9235 53be ccf2 11be
00000110: 448e 6b3c 85de 04bc e1bd 0abe 8857 1abe
00000120: 1fac 693d 98d2 16be 124b 16be f34c 14be
00000130: ca83 e7bb b0ea 353c 9eae e63d 1cdc 18be
00000140: bedf 29be 8f56 bc3e b39a 113e ca8e c93d
00000150: 333a cf3e 2a35 c23c 1168 05be c0de b83d
00000160: 9500 37bd 107b 613d 5b5f 6f3c 9db8 ddbd
00000170: 00b4 2d3d e918 a3bd fa32 5e3d c601 ecbd
00000180: 20c7 a23d 8f4f 243e b49e ad3d c288 55bd
00000190: fbb7 e63d b523 ccbd e719 94bd 55da fbbd
000001a0: 6c2a d13d cc0d 1c3e 262e 143e 80fc 3cbb
000001b0: 98dc 81bd 08f1 f3bd 0f85 07be 91ce c43d
000001c0: 1f1f 993d 4a6a e7bd 228f c03d f0b4 c93d
000001d0: df75 cbbd 9076 5cbd 3689 f5bd 4d7b 13be
000001e0: b41a e5bd 788f 46bd 6089 073c a5aa 223d
000001f0: fdcf 8f3c b1b4 c4bd 72a0 8339 582c 0ebe
00000200: a7a6 ac3d 6405 2e3e 5304 98bd 8097 653b
00000210: f93a 16be ff79 95bd 3ba6 063e ebfe 753d
00000220: 802e d7bc b278 3f3e 0f0b ed3d 8011 bd3a
00000230: a0de 20bd 3af4 f63d b2da ef3d 8084 f1ba
00000240: fd0b 863c 8a2a b13d 409c 19bb 5e32 32bd
00000250: a91e 31be 3a27 713d 219d b33d 9e92 433e
00000260: f85b cdbd 603e 933c ee1f 42be a612 e23d
00000270: b216 ebbd 0067 553c 1d3d 153e 1171 26bc
00000280: 266b 51bd ca9e 0fbe 8b5f bc3d 06cb a1bd
00000290: ce0a 243e 4521 f13c 57d9 1bbd c02a d1bb
000002a0: 1429 b13d 3062 1f3e d9fa 843d 74c6 be3d
000002b0: 80c1 d6bc f5b4 c93c dbc9 da3c 92a2 2e3e
000002c0: 7b03 873d 202f dfbd 8da8 e13d 5eae 473e
000002d0: f04c d3bc cb95 343d de34 703e 499e 3d3d
000002e0: b167 0a3e 3329 6fbe b97f 0e3e 384e 08bb
000002f0: 44c6 4dbd 587e 983d 2c83 34bd 646f 23be
00000300: b054 803d e020 a53e 1f17 e73e 8de4 2b3e
00000310: f6fa a43b 93ee debd d8a6 f4bc f10b 603d
00000320: dfd1 753d f154 673e e9a0 d5bc 9cdb ebbd
00000330: 6742 8ebc 409d 92bc 94b9 683e 0989 f7bd
00000340: 2aba 863e f4c2 853d c3fe a4bd 2ca4 323e
00000350: 7b32 95be 36e9 4bbd 2fe4 1cbe fb6a 24bd
00000360: de04 d33c 0546 d6bd 52ac 75bd 3e24 70bc
00000370: 2f27 18be b3db 9cbc 8775 af3d 281a a4be
00000380: 3708 12be 1db0 803e 797e d5bc 2cc3 f83c
00000390: 02f1 c53d 2df2 8e3e 1ea9 c43d 9355 b83d
000003a0: 401a 2e3e 3a27 85bd 6e48 463d 091a 86bd
000003b0: 397f 02be 0cc3 2c3d 3379 48bd 9ff1 1d3e
000003c0: ab45 c63d 560b af3d 24f9 8dbd 01db f7bd
000003d0: 41dc 0a3d 5213 0abe 1421 853d 6838 cdbc
000003e0: c1fb 0cbe 45fc b53e c3fb 1d3e b048 09be
000003f0: 7639 e73c 198d f43d cdeb 353e 55ca de3c
0.09547547 0.046603594 -0.115928516 0.15019909 -0.1132579 0.061780192 0.109999746 0.1021023
0.18964495 -0.1967128 -0.05977784 0.12565841 -0.13772249 -0.10398788 -0.11121651 0.18438646
0.034647886 -0.24938506 -0.13493355 -0.16299625 0.0061375313 -0.14920448 -0.00886452 -0.15279779
-0.1531336 -0.25451627 -0.24801272 0.37873623 0.15828139 -0.09956156 0.11692676 -0.014784485
0.09988919 0.079161495 -0.129982 0.03200222 -0.20923808 -0.12822321 0.053042587 -0.26438507
0.04786817 0.45649233 0.009939341 0.021462886 0.003705871 -0.025382074 -0.049175214 -0.10841987
-0.062630765 0.08901683 0.11062681 -0.19067371 -0.026253093 -0.27541068 -0.22970472 -0.14187446
-0.12517554 0.033538654 0.057328876 0.13557851 0.029607171 -0.14428248 -0.040862665 0.09706339
-0.03191844 -0.16289344 -0.20625904 -0.14252776 0.0143771805 -0.008109693 -0.13548996 -0.15072453
0.057048913 -0.14728773 -0.14677075 -0.14482479 -0.007065271 0.011103317 0.11263774 -0.14927715
-0.16589257 0.3678479 0.1421917 0.09841688 0.4047409 0.023706991 -0.1302798 0.09026861
-0.04467829 0.055049002 0.014610137 -0.10826228 0.04240799 -0.079637356 0.054247834 -0.11523776
0.07948136 0.16045974 0.08477536 -0.052132376 0.1126556 -0.09967748 -0.07231503 -0.12297503
0.102131695 0.15239638 0.14470729 -0.0028837025 -0.06340903 -0.119112074 -0.13234352 0.09609712
0.07476639 -0.1129957 0.094023004 0.09848964 -0.099345915 -0.053824008 -0.119890615 -0.14402504
-0.11186734 -0.048476666 0.008272499 0.03971352 0.017555231 -0.09604777 0.00025105808 -0.13884103
0.08430224 0.16994244 -0.074227 0.0035032928 -0.14670934 -0.072986595 0.1314935 0.06005756
-0.02626729 0.18698385 0.11574375 0.0014424771 -0.03927481 0.12058301 0.11711635 -0.0018426329
0.016363138 0.08650692 -0.002343908 -0.043505065 -0.17296852 0.0588753 0.08770204 0.19098899
-0.10027307 0.017974079 -0.18957493 0.11038713 -0.11478938 0.013025045 0.14574094 -0.010158793
-0.051127575 -0.14025417 0.09197911 -0.07900052 0.16019747 0.02943481 -0.03804907 -0.00638327
0.08650413 0.155648 0.06493158 0.09315196 -0.026215315 0.02462242 0.02670758 0.17054203
0.06592461 -0.1089766 0.11018477 0.1950011 -0.025793523 0.044088166 0.23457667 0.04629353
0.13516118 -0.2335556 0.1391591 -0.0020798575 -0.05023791 0.07445973 -0.044070408 -0.15960461
0.06266153 0.32251644 0.45134827 0.16786404 0.0050347997 -0.10885348 -0.029864714 0.05469889
0.0600146 0.22590996 -0.026077705 -0.115164965 -0.017365647 -0.017897248 0.22727042 -0.12086684
0.26313907 0.06531325 -0.080564044 0.17445439 -0.29140076 -0.049782954 -0.1532142 -0.040141087
0.025759157 -0.10462574 -0.05997879 -0.014657078 -0.14858697 -0.01914773 0.085673384 -0.32051206
-0.14260946 0.25134364 -0.026061283 0.030366503 0.09665109 0.2791914 0.09602569 0.09000697
0.17002201 -0.065016225 0.048408918 -0.065479346 -0.12743844 0.0421782 -0.04894371 0.15424202
0.09681257 0.08547084 -0.069322854 -0.121023186 0.033901457 -0.13483933 0.0650045 -0.02505131
-0.13767911 0.3554403 0.1542807 -0.13406634 0.028225642 0.11940975 0.17765732 0.027196089

sequential/dense_1/MatMul f4 [64, 128]
00000000: d0fe 48be a578 89bb 974e 423e 1662 02bd
00000010: 15df 07bd dda6 53be d206 313e 84ac 8d3c
00000020: a7d8 2c3c 610f 413b 2fcc a63d 6c4e 12be
00000030: 68bf 41be c02d 26be 380b ab3d 5076 373e
00000040: 51b3 893e 4081 41be 60df 8d3c f86f d1bd
00000050: 268f 8e3e b92b abbe 3c6a c23e 445c a63d
00000060: 1f41 d4be 489a 073f 8631 873e c6de 25be
00000070: 61f0 fb3c 803a 2ebe a252 45be 6578 043f
00000080: df95 52bd f618 03be 18ae efbd 0daf be3b
00000090: 8312 f13c 27a4 8d3d 59ae 9bbd 7e3c 523e
000000a0: 1ff8 ea3d f785 c13e 6a86 873c fe30 1c3d
000000b0: ec6c 933d e26f babd 31e2 05be 399d 94bd
000000c0: cd0b 4abe 295a 30be 13fc 833e eabe 1cbd
000000d0: 1c37 88bd 838b 8b3d ad42 c4bc fa9f 3dbe
000000e0: fe19 79be 4f4a f43d 51b0 60bd 9a97 2cbd
000000f0: 38a4 29bd cc20 16be 44c1 393e f732 82be
00000100: 4b80 a83d 8699 a7be 8f28 c23d 3a9a 553d
00000110: c002 4fbd c0cf 0ebe 100c d6bd e92a 913e
00000120: cd59 dabd d435 b43c 2751 7f3d 9421 4fbe
00000130: 66d6 a8bc 860a 2bbe 0e9c c93d 1ddc 5d3c
00000140: e3e9 54bd 8db8 003d c438 2abd a4ec 89be
00000150: 6156 9ebd 5a83 083e 941f 83be c63f 56be
00000160: 4ff1 7dbd 9419 87bc f25d bf3d fb20 ba3e
00000170: c0c5 283c ae19 303e 5d2a f2bb 41f0 dc3c
00000180: c467 4abe 2c8c 723e a79f 69be 4dc2 a1be
00000190: b518 953e 6331 9cbc 5d99 64be 2b66 8ebd
000001a0: 70db 023e 239e a43d 1024 13be 3073 f23e
000001b0: 0b22 c23d 3052 ac3d 6373 703e c84e abbc
000001c0: cae6 ad3d a3fc 343e 509e 56bd 50c9 003d
000001d0: bf46 ef3d 1d01 643d 2acc 0d3f aa24 26be
000001e0: 5007 55bd 1004 93bd 0823 14be 85f1 713e
000001f0: f702 6a3e f0d1 873d f4d6 dbba 9d95 0bbe
00000200: 6815 1c3e a262 b7bd c582 6e3e 461b 41bd
00000210: 8b6d b0bb e060 96bd 8f84 a23d cdcb bdbd
00000220: 527f ddbd 96d5 17bc 06e4 fa3d de40 973c
00000230: 959e a6bd 6c8e 8f3d 062e 5c3d 77a1 163e
00000240: 240c b13e e7aa b73d d73e 17be e159 23be
00000250: 5c3b df3d 6217 2fbe cdeb 13be 8e0b aa3e
00000260: 351a 58be 5c97 543e a06c fd3d 23aa 8cbd
00000270: 4961 613d 6fa6 cf3d b90f e3bd dd23 703e
00000280: 404a 1abe 9124 bdbc c203 c5bd 0568 933d
00000290: 999f ce3a 6953 b63c a6b7 4b3d 3660 a43d
000002a0: 3b37 ea3e 2a4f 073e f6c5 a1bd 0119 87be
000002b0: 48e6 16be 1f47 3fbe b09f d33c c90e 18bd
000002c0: ba66 493d 044c 0d3e 2b19 db3d 1d5c a6bd
000002d0: 8c8d 863d ed36 e03d ceff 1b3d 3aef 42bd
000002e0: 3440 19be 5b56 acbd f6a3 3cbe 5540 0a3e
000002f0: c915 373d ea82 663d 5a05 aabd 6b5a 75be
00000300: 7ebf e53c 7dfa 04bd 07a9 b8bd cdae 803d
00000310: e7ca e83d 4c48 06be 56e6 c1be 44d5 973e
00000320: ad21 953c 4f0d 63bc 5e19 bb3c d9d9 b2bd
00000330: 6847 f1bd 343d 8cbe 70d1 2cbe 219c 723e
00000340: fe4b 3ebe 1952 133e e1ce df3d b847 2cbe
00000350: 7c0c 26be f057 f6bb d77b 3cbe 9a56 18be
00000360: 0043 35be 009f ccbd 2982 64bd e71d cd3e
00000370: 3736 3abd 6136 193e 1ecc 51be 7234 7a3d
00000380: 88ba b4bd 3201 7b3e 18f8 3b3d e36d 01be
00000390: 806b 00be f1df a33d 137d 0ebe 9d2a 94bd
000003a0: 452d a3bd 1abe 3e3e a133 813c 33d9 a13e
000003b0: e0ad 233d 9b27 e8bd 6f83 14bd f6cc 873e
000003c0: 6ba3 09bd 4a6d b1bd 394e 9f3d 65e0 61bd
000003d0: 9844 d3bb 122c 4ebe 03e3 c33e 1900 6abe
000003e0: 76ca ec3d 57ab 66be 7e8f 743d ad24 073e
000003f0: 0921 b43c 1847 8b3e 0920 bfbd 30e0 583e
-0.19628453 -0.00419529 0.18975292 -0.031831823 -0.033171732 -0.20669122 0.17287758 0.017294176
0.010549701 0.002945863 0.08144414 -0.14287728 -0.18920672 -0.1622839 0.08351749 0.17916226
0.2689462 -0.18896961 0.017318428 -0.102264345 0.2784359 -0.33431795 0.37971675 0.08123067
-0.41455933 0.5296979 0.2640497 -0.16198263 0.03075427 -0.17014503 -0.19269803 0.5174621
-0.05141246 -0.1280249 -0.117031276 0.0058192075 0.029427772 0.06916075 -0.076016136 0.20530888
0.114731066 0.3779752 0.016543586 0.03813266 0.071985096 -0.09103371 -0.13074566 -0.0725655
-0.19731064 -0.17221893 0.25778255 -0.038268007 -0.06651136 0.06813719 -0.023957575 -0.18518057
-0.24326321 0.11928236 -0.05485565 -0.042136766 -0.041416377 -0.14660949 0.18140131 -0.25429508
0.08227595 -0.32734317 0.09480392 0.052149035 -0.050539732 -0.13946438 -0.104515195 0.2835305
-0.106616594 0.021998324 0.062333252 -0.20227653 -0.020610046 -0.16703233 0.09844218 0.013541249
-0.051980864 0.031426 -0.041558042 -0.26938355 -0.07731319 0.13331357 -0.2561003 -0.20922765
-0.061997708 -0.016491689 0.093440905 0.36353287 0.0103010535 0.17197296 -0.007390304 0.02697003
-0.19766146 0.23686284 -0.22814809 -0.31593552 0.29120412 -0.019066518 -0.22324128 -0.06953081
0.12779021 0.08037975 -0.14369226 0.47353506 0.094791494 0.084141135 0.23481517 -0.02091159
0.08491285 0.17674498 -0.052397072 0.031441987 0.116834156 0.055665124 0.55389655 -0.16224924
-0.052008927 -0.07178509 -0.14466488 0.23627289 0.22852693 0.06631839 -0.0016772435 -0.13631292
0.15242541 -0.089543596 0.23292072 -0.04714515 -0.0053841523 -0.07342696 0.0793544 -0.092673875
-0.108153 -0.009267231 0.12250523 0.018463548 -0.08135716 0.07009587 0.05375483 0.14710031
0.34579575 0.08968144 -0.14770065 -0.15952255 0.10899994 -0.17098764 -0.1444542 0.3321194
-0.21103747 0.20760864 0.12374234 -0.068683885 0.05502442 0.101391666 -0.11086983 0.23451181
-0.15067387 -0.023088725 -0.09619857 0.071975745 0.0015764117 0.02225657 0.049735688 0.08026163
0.45745263 0.13213792 -0.07899086 -0.26386264 -0.14736283 -0.18679474 0.02583298 -0.037123475
0.049170233 0.13798529 0.1069816 -0.08123038 0.06569967 0.10947976 0.03808575 -0.047591425
-0.14965898 -0.084149085 -0.18421921 0.13501103 0.04469851 0.056277193 -0.08301802 -0.23960273
0.028045412 -0.032465447 -0.090166144 0.062833406 0.113668256 -0.13113517 -0.37871045 0.29654896
0.018204534 -0.0138581535 0.022839244 -0.087329574 -0.11781198 -0.27390444 -0.16876769 0.23692371
-0.18583676 0.14386787 0.10928131 -0.16824234 -0.162157 -0.007517807 -0.18406616 -0.14876786
-0.1770134 -0.09991264 -0.055788193 0.40061876 -0.04546186 0.1496215 -0.20488021 0.061085172
-0.088246405 0.24512175 0.045890898 -0.12639575 -0.12541008 0.08001698 -0.139149 -0.0723469
-0.07967619 0.18627205 0.015771689 0.31611022 0.039960742 -0.11335679 -0.036258157 0.2652356
-0.033603113 -0.08663423 0.07778592 -0.05514564 -0.006447386 -0.20133999 0.38259134 -0.228516
0.11562054 -0.22526298 0.059707157 0.13197584 0.021988409 0.27202678 -0.09332282 0.2117927

sequential/dense_2/MatMul f4 [17, 64]
00000000: 68db 0d3f 42d4 e63e c375 243f e4b1 e2be
00000010: 14c1 32be 805e 79be 338d bcbe 4c69 1f3f
00000020: cb36 fd3e 05e2 df3e aa83 843d a0d9 c6be
00000030: 6db9 f2be 66d5 f83e 47a0 9cbe 0e0d cd3e
00000040: 21eb 99be 391d 913d d699 18be 2d67 6abe
00000050: 68b2 d8be 8505 a1be d8b2 7abd 2d46 e5be
00000060: f3a3 cb3e dca9 a0be 7b3e 2d3f e504 babe
00000070: 3a1f 92be 3ed1 f5be 7c3b 953e da0b 92bd
00000080: 0645 79be d613 83be 67e7 10bf ba94 fbbd
00000090: 3361 213e b778 403f 8f8a 003e cfc4 9d3e
000000a0: 8fc8 243f 536c 043f db73 87be 1a05 afbe
000000b0: 53b3 09bf 1416 ba3d c6c3 e33e 79a8 c6be
000000c0: f314 fcbe 3034 b2bd 4986 c53e 5fe4 473f
000000d0: 35b3 3bbe 799a 253d 60fb e4be 0cf5 c0be
000000e0: 263b 563f dbfc 8bbe e4b8 aebe 79a5 ae3e
000000f0: b1ab 0dbe 674a c2be cf43 e1be aa77 86be
00000100: c107 c73e 4075 9d3e c642 f73e 56ae fabe
00000110: c19d eabe c08e 50be 3963 dd3e d94f 4abe
00000120: a899 03bf f47b 343e 1a4f 25be 581a e83e
00000130: 1ece bebe 1823 cfbe d7f8 fa3e 8741 22bf
00000140: 90f4 7bbe 1f8a 9c3c d513 49be c27f 083f
00000150: 6a27 113f 583d 113f c06d 693d 6093 173f
00000160: c4ba 6cbb 8360 853d e3b1 bb3e 8597 e4be
00000170: 8a25 2abf bcdb eb3e 8d0e ffbe 51fc 123f
00000180: 25d3 ec3e 30b6 0d3d 7c65 16bf 319a 82be
00000190: b8e3 1b3f 6b8b 96be 0857 11be f0f7 86be
000001a0: 9284 53bd 08d6 da3e 9d0f 3dbe 4be7 96be
000001b0: 0cb7 2c3f 3a33 7abd 9f31 29bf 12f1 0c3f
000001c0: b2fc eebe f789 983d 910d d5be e016 edbe
000001d0: be48 1a3f 1156 b7be fcc8 65be 8e7d cbbe
000001e0: f5d4 0ebf 49b1 07bf 9f56 dcbe b129 c83e
000001f0: 4e3c 55bd 3213 983e ced7 a33d a777 63be
00000200: 0ee3 933e 10e5 153f 9c80 c3be 4c6a 38be
00000210: 0029 333f 5cd5 103f dcaf 65bf 85a5 923e
00000220: b959 053e f030 ab3d 34de 19bf 3ce8 d63e
00000230: b375 c6bd 8898 963e dbe0 fbbe 47ea 1b3f
00000240: 57d8 aa3e 1f8c 1fbe 08f2 40be 707b 3dbf
00000250: 861b f6be cc2f 1cbf a14b 89be 189c a8be
00000260: 98ec c33e 7630 d3be 14e3 ddbe b02f 0b3f
00000270: c476 0d3f ba0b c53e b624 c9be 052f e53e
00000280: 0b68 14bf 2179 5f3e faba 1c3f e23c 6ebd
00000290: e429 9d3e 3432 d53e dd9c 86bd a76b ebbe
000002a0: 52b8 abbe d600 6b3e abb4 043f c798 33bf
000002b0: b3be 9abe bd88 c23d 95c7 b83e 2d25 173f
000002c0: 9803 283f 729e 243e bfed adbe d5bc 64bd
000002d0: fd2c bd3c e5dd d5be b933 49bf 98a8 38be
000002e0: 3d7a 383f 070b 55be 0c78 16bf 90f1 32bf
000002f0: d5f7 133f e9b3 f2be 6385 033f 1237 95be
00000300: 1fb7 253f 8a0d c0bb 4d9d 4fbd 4059 47be
00000310: dacf 223f aa4f b5be f2cf dbbe 7373 bd3e
00000320: 1e83 bebe 5d98 653d fdb1 f3be 28a6 11bf
00000330: 5f19 043f 6b67 32be b2ef 2abe f40d 9d3e
00000340: a79c 333f b92e e13d d366 9ebe 3b27 36be
00000350: 0c15 6dbe a56d 9f3e 4394 ed3d 56a1 9ebe
00000360: d0aa 7abe 1e8c 82be eba0 8ebe 8528 3c3f
00000370: 179b de3e a3cb a8be 4d9d afbe 44d3 a1be
00000380: 2d05 273f 16b5 0c3e 4764 2abe 663c f23e
00000390: 28d8 7ebe 6412 713e 1b14 a13e 7f23 493f
000003a0: ea3c 0e3f e86e dbbe 673e 27be 1692 f83e
000003b0: b072 b0bd 71f9 95be 69e5 fb3e af61 223d
000003c0: ed7f e6be 7be4 d33d 02a4 acbe ab4c 45bb
000003d0: 5f65 863d e722 c63e d3eb 023f 9e72 c3be
000003e0: 9fad d2be 00b1 1bbe 2532 43be f064 3e3f
000003f0: 8cd7 cabe 2351 b63e cf35 38bd f9f8 37bf
0.5541291 0.45083815 0.6424219 -0.44276345 -0.17456466 -0.24352455 -0.36826476 0.62270045
0.49455866 0.43727127 0.064704254 -0.3883791 -0.47407094 0.4860031 -0.30591032 0.40049022
-0.30062202 0.07085652 -0.14902434 -0.22890921 -0.42323613 -0.31449524 -0.061205715 -0.44780102
0.3977352 -0.31379592 0.6767346 -0.3633186 -0.2853945 -0.48011202 0.29146945 -0.07131167
-0.24342737 -0.2560107 -0.5660309 -0.12284227 0.15759735 0.75184196 0.12552856 0.30814216
0.6436853 0.5172779 -0.26455578 -0.3418358 -0.5378925 0.09086242 0.444853 -0.3880041
-0.49234733 -0.0870136 0.38579014 0.7808284 -0.18330081 0.04043052 -0.44723034 -0.37686956
0.83684003 -0.2734135 -0.34125435 0.3411062 -0.13835026 -0.3794739 -0.43997046 -0.2626317
0.38873103 0.30753517 0.48293132 -0.48961133 -0.45823482 -0.20366955 0.43239763 -0.19757022
-0.51406336 0.1762541 -0.16143456 0.453326 -0.3726663 -0.40456462 0.49017975 -0.63381237
-0.24605012 0.01910883 -0.19636472 0.5331994 0.56700766 0.5673423 0.05698943 0.5920925
-0.0036122063 0.06512549 0.36659154 -0.4464685 -0.6646353 0.46066082 -0.4981579 0.57416254
0.4625484 0.034597576 -0.587486 -0.25508264 0.60894346 -0.29403242 -0.14193356 -0.26361036
-0.0516401 0.42741418 -0.18462987 -0.29473338 0.6746681 -0.06108401 -0.6609134 0.55055344
-0.46677166 0.0744819 -0.41611913 -0.46306515 0.60267246 -0.3580785 -0.2243995 -0.39744228
-0.55793697 -0.5300489 -0.43034837 0.39094308 -0.052059464 0.29702145 0.08000146 -0.22213612
0.28884166 0.58552647 -0.3818406 -0.18009299 0.69984436 0.5657556 -0.89721465 0.28641906
0.13022508 0.083589435 -0.6010468 0.41974056 -0.09690418 0.29413247 -0.4919499 0.60904354
0.3336818 -0.15580796 -0.18842328 -0.74016476 -0.48067874 -0.6101043 -0.26815513 -0.3293159
0.38266444 -0.4124791 -0.4333731 0.5436964 0.55259347 0.3848551 -0.3928582 0.44762436
-0.57971257 0.21823551 0.61222804 -0.05816353 0.30696023 0.41639864 -0.06572888 -0.4598057
-0.33539063 0.22949538 0.5183818 -0.70154995 -0.30223617 0.09498737 0.3608977 0.590411
0.65630484 0.16076067 -0.33970448 -0.055844147 0.023092741 -0.41770855 -0.7859455 -0.18033063
0.7206152 -0.20804988 -0.58776927 -0.69899845 0.57800037 -0.47402886 0.51375407 -0.29143578
0.64732546 -0.005860989 -0.050687123 -0.1946764 0.63598406 -0.3541234 -0.42932087 0.37002143
-0.3720941 0.056053508 -0.47596732 -0.5689416 0.51601213 -0.17422263 -0.16692999 0.30674708
0.7016091 0.1099524 -0.30937824 -0.17788403 -0.2315256 0.3113834 0.11600544 -0.30982465
-0.24479222 -0.25497526 -0.27857146 0.7349933 0.434777 -0.32967862 -0.34299698 -0.31606495
0.6524227 0.13740954 -0.16639815 0.47311705 -0.24887145 0.23542172 0.31460652 0.7856979
0.555617 -0.42858052 -0.16332398 0.48548955 -0.08615625 -0.2929187 0.49198464 0.03964394
-0.45019475 0.103463136 -0.33718878 -0.0030105512 0.06562304 0.38698503 0.5114109 -0.38173383
-0.41148087 -0.15204239 -0.19062097 0.7437277 -0.39617574 0.35608777 -0.04497319 -0.7186428
