chat-ai.tflite (tflite, 108112 bytes, 6 tensors)

sequential/dense/BiasAdd/ReadVariableOp/resource f4 [128]
-0.08003545 0.13037665 -0.002967713 0.16049486 -0.055292513 0.14052366 -0.036082778 0.10972545
0.1627877 0.084668726 0.19597216 0.16424981 0.108385526 -0.101516806 -0.04904036 0.041944075
0.14038366 0.20318791 -0.0387005 0.17850965 -0.041218307 0.16728918 -0.20928831 0.1514228
0.15162456 -0.18451186 0.072936274 -0.048424233 -0.028058266 -0.22291829 0.19520982 0.18282115
-0.015544095 -0.07078956 -0.35752973 -0.18207987 0.02533225 -0.11868738 0.024040261 0.06670365
-0.03823305 -0.08339014 -0.05928683 -0.012579891 0.24701108 -0.0052527254 0.31237474 0.12974285
0.16993168 -0.23909928 0.030612584 0.053133436 -0.30108565 0.025659403 -0.091437995 0.071427606
-0.107455894 0.081835546 -0.099132225 0.026033195 0.09056168 -0.019205442 -0.21910144 -0.03878684
0.18715428 0.01533263 0.018962936 -0.2232835 0.00029084034 0.07482547 0.24490844 0.13442211
0.15402906 -0.05150103 -0.016264511 0.09893861 0.075053416 -0.020671908 -0.015842088 -0.12471014
-0.06969344 0.116073646 0.10788354 -0.13072973 -0.070872314 -0.10628598 -0.089665644 0.076611094
0.08933443 -0.10789533 0.07406675 -0.08256049 0.0034804551 -0.16046079 0.17325555 0.04046791
0.09000958 -0.038966965 -0.120043755 -0.050270732 -0.12847812 0.06778818 -0.04895998 0.043140754
-0.10741967 0.15002194 0.14909685 -0.083224 0.1635634 0.11504449 -0.096572444 0.029152261
0.047157764 0.17687036 0.1363536 0.09873846 0.06836612 0.16170058 0.13815847 -0.06258296
-0.07906022 0.11442429 0.02389981 0.05616883 0.10001766 0.13497436 -0.029857468 0.01626124
00000000: a0e9 a3bd 7581 053e f67d 42bb c458 243e
00000010: 677a 62bd 6fe5 0f3e 89cb 13bd bdb7 e03d
00000020: d2b1 263e cc66 ad3d edac 483e 1a31 283e
00000030: 3bf9 dd3d 0be8 cfbd 8bde 48bd 8dcd 2b3d
00000040: bcc0 0f3e 7e10 503e 6a84 1ebd 3ccb 363e
00000050: 87d4 28bd db4d 2b3e ad4f 56be 940e 1b3e
00000060: 7843 1b3e adf0 3cbe 9d5f 953d 7d58 46bd
00000070: 73da e5bc b144 64be 15e5 473e 7835 3b3e
00000080: a9ac 7ebc 1efa 90bd 230e b7be 2573 3abe
00000090: 9485 cf3c 5e12 f3bd 15f0 c43c ec9b 883d
000000a0: 429a 1cbd 73c8 aabd bfd6 72bd e31b 4ebc
000000b0: 79f0 7c3e 0e1f acbb 95ef 9f3e 4fdb 043e
000000c0: 9202 2e3e 71d6 74be 3ec7 fa3c 72a2 593d
000000d0: e627 9abe ab33 d23c d843 bbbd a348 923d
000000e0: d611 dcbd 6599 a73d d605 cbbd 9143 d53c
000000f0: 6778 b93d bb54 9dbc 215c 60be f3de 1ebd
00000100: 5fa5 3f3e b635 7b3c 2958 9b3c 6ea4 64be
00000110: ee7b 9839 193e 993d 47c9 7a3e f3a5 093e
00000120: cbb9 1d3e bef2 52bd 273d 85bc 53a0 ca3d
00000130: 9bb5 993d 2258 a9bc 44c7 81bc 0868 ffbd
00000140: 6fbb 8ebd 05b8 ed3d 0cf2 dc3d 04de 05be
00000150: 8125 91bd 77ac d9bd 9fa2 b7bd 47e6 9c3d
00000160: f8f4 b63d 3af8 dcbd 4fb0 973d 7915 a9bd
00000170: 5918 643b d54f 24be e769 313e aec1 253d
00000180: f156 b83d d39b 1fbd 80d9 f5bd afe8 4dbd
00000190: c58f 03be 88d4 8a3d 438a 48bd 5cb4 303d
000001a0: d8fe dbbd 5a9f 193e d8ac 183e 5871 aabd
000001b0: 2a7d 273e 729c eb3d c6c7 c5bd b9d0 ee3c
000001c0: 8028 413d 811d 353e 47a0 0b3e 6437 ca3d
000001d0: 8903 8c3d d694 253e 6a79 0d3e 7f2b 80bd
000001e0: 53ea a1bd 4857 ea3d 89c9 c33c 4911 663d
000001f0: 0fd6 cc3d b836 0a3e a697 f4bc 4b36 853c

sequential/dense_1/BiasAdd/ReadVariableOp/resource f4 [64]
0.22940262 0.32975382 0.19459344 0.12978838 0.05270139 0.37517408 0.15931351 0.21307074
0.17732953 0.06530397 0.054748658 0.47819245 -0.016011355 -0.08775999 0.07350131 0.025128487
0.2856247 0.07366321 0.037617706 0.5702249 0.25840387 0.48742074 0.23599645 0.110766225
-0.14701517 0.24890496 0.05554289 -0.08695617 0.09713829 0.51475924 0.09357947 -0.14656797
0.25035405 0.010877578 -0.14839077 0.1856068 0.0137327295 0.050635003 -0.045963272 0.018974459
-0.14698647 0.29406315 -0.019660939 -0.39371789 -0.47445098 0.31245428 -0.26110315 -0.24142082
0.16687578 0.07448817 -0.19915114 0.042877108 0.29866943 0.04262141 0.21407297 0.3059048
0.05744352 0.2767048 0.32701442 -0.07238017 -0.258717 0.04545547 -0.26955673 0.35982668
00000000: 85e8 6a3e 7ed5 a83e 8143 473e 3fe7 043e
00000010: 6add 573d d116 c03e 1523 233e 372f 5a3e
00000020: df95 353e 16be 853d 2140 603d a4d5 f43e
00000030: 3f2a 83bc 82bb b3bd db87 963d 42da cd3c
00000040: 673d 923e bddc 963d 0615 1a3d 42fa 113f
00000050: 834d 843e 368f f93e 0ea9 713e 67d9 e23d
00000060: 258b 16be f1e0 7e3e f180 633d 1416 b2bd
00000070: 71f0 c63d 43c7 033f 98a6 bf3d ea15 16be
00000080: 682e 803e de37 323c c0f3 17be b50f 3e3e
00000090: 3eff 603c a666 4f3d fc43 3cbd 5370 9b3c
000000a0: 9f83 16be 728f 963e fa0f a1bc 6495 c9be
000000b0: 3deb f2be 02fa 9f3e 50af 85be 0537 77be
000000c0: 7ce1 2a3e 418d 983d 47ee 4bbe e89f 2f3d
000000d0: 33eb 983e ca93 2e3d f235 5b3e 8e9f 9c3e
000000e0: e549 6b3d 40ac 8d3e 6f6e a73e 0e3c 94bd
000000f0: 8e76 84be 842f 3a3d 5703 8abe 343b b83e

sequential/dense_2/BiasAdd/ReadVariableOp/resource f4 [24]
-0.17627671 -0.23186322 -0.11114498 -0.07436315 0.25293392 -0.4829332 0.48198146 0.2284605
-0.6875471 1.1161714 0.20838895 -0.067706205 0.64162225 -0.0031259472 -0.7049172 0.8354503
-0.1579069 0.18479496 -0.33950898 0.39222157 -0.5181666 -0.38742095 -0.008516336 -0.39062938
00000000: e281 34be 8d6d 6dbe fb9f e3bd b54b 98bd
00000010: 8e80 813e 0543 f7be 46c6 f63e 8df1 693e
00000020: 1603 30bf b4de 8e3f ea63 553e 8da9 8abd
00000030: 5b41 243f b1dc 4cbb 7475 34bf 12e0 553f
00000040: 59b2 21be e43a 3d3e 1fd4 adbe 44d1 c83e
00000050: 91a6 04bf 0a5c c6be 1a88 0bbc 9300 c8be

sequential/dense/MatMul f4 [128, 130]
-0.10305391 0.18749085 0.11202311 -0.14768471 -0.024354903 -0.080367215 0.0035516426 0.19879207
-0.010017455 -0.031767182 -0.06980725 -0.05714638 -0.06689637 -0.11775478 0.04653534 0.016457867
0.27385232 0.06950377 -0.11080021 -0.03634844 -0.056898937 -0.1641292 -0.025259642 -0.042590566
0.063832745 0.050444063 -0.5060994 0.07964557 -0.028762838 -0.2307052 -0.12603226 0.15299712
-0.04061163 0.13188352 -0.18944669 -0.1510365 0.12786531 0.25093287 0.015844708 -0.14014788
-0.083049156 -0.10306153 -0.015786732 -0.033483315 -0.13988927 -0.063143656 0.02654712 0.18358204
-0.05652334 -0.23895897 -0.0240177 0.30305496 -0.1647707 -0.17971714 -0.07519486 -0.036169305
0.095605455 -0.14533444 0.21697533 -0.1544564 0.33603725 0.09657733 0.028452385 -0.13726564
0.06676022 -0.090336785 -0.117038205 -0.03170243 0.49089393 0.19110899 0.019108431 0.118802816
0.13984032 -0.025029168 0.10935387 0.100889795 -0.022179268 0.11704511 -0.13666147 -0.04885159
0.288791 -0.1187567 -0.09704155 -0.11754712 0.025871998 -0.011497063 -0.0044193524 -0.023829455
0.019975992 0.03903101 -0.07550862 -0.06900364 -0.0709779 0.10471606 -0.15960696 -0.046849307
0.006323571 -0.34977108 -0.032885216 -0.07461796 -0.008237579 -0.013876331 0.06254781 0.27099237
-0.070526354 -0.020205868 0.0072956136 -0.043669503 0.14430775 -0.14905034 0.061364237 -0.13848265
-0.12666765 0.26916206 -0.20023221 -0.18869108 0.200372 0.0033514777 0.24823514 0.3117028
0.33024222 0.18963556 0.038240183 0.028864058 -0.0078094793 -0.10993023 -0.043247383 0.012472603
0.17417155 -0.023776356 0.007331375 0.33161485 -0.07127723 -0.007958968 -0.08182693 -0.1853393
-0.035398863 0.18377395 -0.1651574 0.029317288 0.26889727 0.17428774 0.29355675 -0.27328923
-0.045947287 -0.16782461 0.48079404 0.16051102 0.13576697 -0.14515197 0.20141247 0.08309322
-0.011113395 -0.17187074 0.342815 -0.009317444 -0.30663973 -0.06499419 0.11836928 0.15212917
0.23347884 -0.14264844 -0.103506036 -0.08645632 -0.1967433 -0.14051855 -0.057521377 0.15797232
-0.052040417 0.16909236 -0.2131651 -0.08187036 -0.14198138 0.57864267 -0.18230811 -0.14630157
-0.20797923 0.16694918 0.09123595 -0.026811747 -0.08056066 0.02589412 -0.06046128 -0.05254065
0.12516415 0.10344021 0.0020231188 -0.21423268 0.28231823 -0.028786138 0.107058935 0.03481443
0.28743488 0.23570329 0.012853193 -0.024005918 0.07630768 -0.11757128 0.06261316 -0.06531137
0.118722245 0.13714868 -0.10488973 0.02755745 0.13201453 -0.0037427496 0.05535352 0.14851545
-0.06429451 -0.12631714 0.45446724 0.23878947 0.21187687 -0.14148402 -0.15046862 -0.12080512
-0.19561964 -0.108282365 -0.14859866 0.3748131 0.2481013 -0.04111228 -0.24707158 0.16763331
0.12908007 -0.3475103 0.02091548 0.14554234 0.059887324 0.0643339 -0.08278025 -0.19095625
0.084927894 -0.07488497 -0.057392947 -0.110231005 -0.21086827 -0.09441574 0.07300954 -0.15489465
0.011152047 0.0021335077 -0.058502972 -0.08081394 0.12768073 -0.2264262 0.056344144 -0.1334009
0.059850197 0.18685386 0.24359113 0.19743797 0.199663 -0.23716755 -0.2117187 -0.16342129
00000000: ee0d d3bd 9afd 3f3e 5f6c e53d a93a 17be
00000010: ef83 c7bc 9197 a4bd adc2 683b 2690 4b3e
00000020: 4020 24bc 4e1e 02bd 1af7 8ebd 5312 6abd
00000030: f700 89bd 6b29 f1bd d79b 3e3d a6d2 863c
00000040: 5f36 8c3e fe57 8e3d 38eb e2bd 1ae2 14bd
00000050: dc0e 69bd 7c11 28be 4fed cebc 7273 2ebd
00000060: beba 823d 6f9e 4e3d bb8f 01bf 371d a33d
00000070: 0ba0 ebbc fc3d 6cbe 9a0e 01be 47ab 1c3e
00000080: 6158 26bd 790c 073e 50fe 41be 50a9 1abe
00000090: 20ef 023e 467a 803e c3cc 813c ed82 0fbe
000000a0: ad15 aabd ec11 d3bd 2d53 81bc cd25 09bd
000000b0: 223f 0fbe 7651 81bd 5979 d93c eefc 3b3e
000000c0: 0585 67bd a9b1 74be c5c0 c4bc 052a 9b3e
000000d0: a6b9 28be c507 38be c3ff 99bd 4426 14bd
000000e0: cbcc c33d 8dd2 14be c82e 5e3e d229 1ebe
000000f0: 130d ac3e 56ca c53d fa14 e93c 5d8f 0cbe
00000100: 95b9 883d 7e02 b9bd bab1 efbd 68da 01bd
00000110: 7356 fb3e 13b2 433e 4989 9c3c e44e f33d
00000120: 4d32 0f3e f809 cdbc ecf4 df3d 4f9f ce3d
00000130: 4cb1 b5bc 59b5 ef3d fcf0 0bbe 9b18 48bd
00000140: 6adc 933e b636 f3bd b8bd c6bd 8bbc f0bd
00000150: 83f1 d33c 2d5e 3cbc 37d0 90bb fd35 c3bc
00000160: b1a4 a33c fbde 1f3d 43a4 9abd c851 8dbd
00000170: dc5c 91bd 6075 d63d 0270 23be 0fe5 3fbd
00000180: f535 cf3b 3215 b3be a6b2 06bd 4dd1 98bd
00000190: e9f6 06bc 8d59 63bc 1119 803d 83bf 8a3e
000001a0: 1f70 90bd c786 a5bc 0b10 ef3b cbde 32bd
000001b0: 69c5 133e a7a0 18be 1159 7b3d 65ce 0dbe
000001c0: 2ab5 01be 9ccf 893e ac09 4dbe 3c38 41be
000001d0: 512e 4d3e 77a4 5b3b 5a31 7e3e 8297 9f3e
000001e0: 8215 a93e d32f 423e bda1 1c3d 5174 ec3c
000001f0: a9e6 ffbb 1a23 e1bd 2b24 31bd e359 4c3c
00000200: 075a 323e a2c6 c2bc 083c f03b 6cc9 a93e
00000210: ccf9 91bd 5566 02bc e194 a7bd 96c9 3dbe
00000220: 66fe 10bd 3d2f 3c3e 051f 29be cf2a f03c
00000230: e7ac 893e 7c78 323e 124d 963e 91ec 8bbe
00000240: 3933 3cbd 37da 2bbe a32a f63e 005d 243e
00000250: 7f06 0b3e b8a2 14be 123f 4e3e c72c aa3d
00000260: f514 36bc e2fe 2fbe 7385 af3e 31a8 18bc
00000270: e2ff 9cbe ad1b 85bd 986b f23d c0c7 1b3e
00000280: 1415 6f3e 6f12 12be f9fa d3bd 0310 b1bd
00000290: 1377 49be 18e4 0fbe 899b 6bbd 7fc3 213e
000002a0: 5528 55bd 8c26 2d3e f447 5abe a6ab a7bd
000002b0: 9163 11be ed21 143f faae 3abe 14d0 15be
000002c0: 82f8 54be baf4 2a3e ead9 ba3d 4fa4 dbbc
000002d0: fdfc a4bd e81f d43c 3fa6 77bd dd34 57bd
000002e0: 082b 003e 76d8 d33d 4d96 043b d05f 5bbe
000002f0: 048c 903e e8d0 ebbc b741 db3d 9399 0e3d
00000300: aa2a 933e 345c 713e 3396 523c 0fa8 c4bc
00000310: 3347 9c3d 36c9 f0bd 543b 803d f8c1 85bd
00000320: a624 f33d b470 0c3e 6dd0 d6bd 29c0 e13c
00000330: d12e 073e eb48 75bb 5fba 623d 6f14 183e
00000340: d7ac 83bd 4859 01be eeaf e83e 3a85 743e
00000350: 40f6 583e 30e1 10be 7214 1abe ad68 f7bd
00000360: 8450 48be 25c3 ddbd 3f2a 18be 81e7 bf3e
00000370: 440e 7e3e 5a65 28bd 5500 7dbe 11a8 2b3e
00000380: 912d 043e dfec b1be f156 ab3c 0d09 153e
00000390: 694c 753d 7ec1 833d b188 a9bd 098a 43be
000003a0: adee ad3d 4b5d 99bd de14 6bbd cbc0 e1bd
000003b0: daed 57be 0a5d c1bd 0786 953d b49c 1ebe
000003c0: 13b7 363c 52d2 0b3b d0a0 6fbd c781 a5bd
000003d0: bdbe 023e 45dc 67be 1ec9 663d 3f9a 08be
000003e0: 7b25 753d 9e56 3f3e f46f 793e 2e2d 4a3e
000003f0: 7574 4c3e 0ddc 72be c9cc 58be e957 27be

sequential/dense_1/MatMul f4 [64, 128]
-0.04871669 -0.4046523 0.12818198 0.14997388 -0.060081556 -0.006116599 0.09090463 -0.20228831
-0.15187061 -0.27274826 0.16389965 0.08815374 -0.07879502 -0.0772465 -0.15411203 -0.103379674
0.14328249 0.33365166 -0.07107112 -0.15071705 -0.14857282 -0.2580823 -0.101649076 0.03600185
0.08791056 -0.118751295 0.26727444 -0.0033067176 0.11972711 -0.00488786 -0.07944423 0.2761132
0.14681636 -0.1196238 -0.19902262 -0.23044175 -0.35591933 0.019953985 0.17532526 -0.16482098
-0.02543722 -0.27461097 -0.25579524 -0.037585888 -0.15825504 -0.025553895 0.036253594 0.5765781
0.075805955 -0.016137427 -0.09906353 0.13643399 -0.02541986 0.06584052 -0.24337274 0.13277064
-0.37991366 0.1536815 0.3110626 0.31477645 0.049017884 -0.0040125367 -0.21337911 -0.013866667
0.13823389 -0.27744436 -0.24210413 -0.20432061 -0.08605122 0.2721976 -0.021897076 -0.07141394
-0.33802745 -0.21257897 0.1281459 0.16531464 0.23223773 -0.013039833 0.16270614 -0.02803505
0.4228913 0.098869465 0.48316717 0.26451442 0.3319143 -0.1747964 0.11566501 0.012441071
-0.14844854 -0.24437034 -0.20872344 -0.18121463 -0.10816911 -0.39867437 -0.12173323 0.38939634
0.022883147 -0.20016153 -0.110765755 0.2246106 -0.19888048 0.028079053 0.09099726 0.30743432
-0.028508864 0.105607145 -0.25072607 -0.27031964 0.32628432 0.44659644 -0.24024542 0.20719373
-0.08003005 -0.0040492876 -0.3595735 0.4849581 0.20035096 0.5799615 0.2934008 -0.35469425
-0.13560158 -0.32158455 -0.08275152 0.15434527 0.12045329 0.36543065 -0.09202656 -0.32732427
-0.03856902 0.20892224 -0.04762129 -0.21823913 -0.08540292 -0.19361682 0.24084833 0.11549531
-0.27439862 -0.09239965 -0.02463749 0.29443145 -0.12695463 0.08319729 -0.101870224 -0.07294141
-0.11944463 -0.10258011 -0.47023132 0.19016224 0.5780588 -0.25159505 0.23916376 -0.0066679525
0.14448008 0.53501457 -0.09882283 0.055080596 0.21181056 -0.10942604 -0.22511409 -0.3499657
0.26693916 -0.13291824 0.15847811 0.10335822 -0.019344945 -0.21565863 -0.049396276 -0.18750681
-0.026928678 0.008072712 0.15423244 -0.17658365 -0.13789469 0.22740024 -0.037531 -0.31449434
-0.17205833 -0.30226615 0.6377603 0.03910725 0.015757479 0.052383196 0.31564355 0.104061626
0.05033579 -0.25860673 0.08761383 0.0132773705 -0.35805807 -0.2740663 -0.005311145 -0.015553928
0.19215846 -0.18379131 0.18747912 0.18087308 -0.007678895 -0.16319881 -0.10092833 -0.17646077
-0.004252698 -0.09813753 -0.024047874 -0.21895008 -0.120256916 0.47195548 0.1568966 0.026694072
0.08338693 -0.16994908 -0.22700684 0.38152695 0.22547892 0.42182443 0.4240131 -0.08923111
-0.21193285 0.07620363 0.11158748 0.2229077 -0.019565616 0.13947397 -0.24570304 0.016133767
-0.28062755 0.12374591 0.06516167 0.14506802 -0.13462138 0.06722123 -0.24553569 -0.01598229
0.12977262 -0.1704101 -0.27433896 -0.35637692 -0.21558382 -0.058432605 0.046212777 -0.12464204
-0.040867645 0.10895069 -0.2897574 0.30519998 0.20765476 0.020846106 0.05051205 -0.054439537
-0.0772392 -0.03970387 -0.1980631 -0.106574684 0.1843485 0.053758245 0.05459048 -0.20280454
00000000: 278b 47bd 962e cfbe 2342 033e c192 193e
00000010: 1418 76bd c06d c8bb 352c ba3d ab24 4fbe
00000020: f883 1bbe a9a5 8bbe 4fd5 273e f389 b43d
00000030: 495f a1bd 6a33 9ebd 8bcf 1dbe b9b8 d3bd
00000040: a5b8 123e 64d4 aa3e bc8d 91bd 9255 1abe
00000050: 7923 18be 5d23 84be 642d d0bd ad76 133d
00000060: 740a b43d e133 f3bd 32d8 883e 84b5 58bb
00000070: 7d33 f53d 572a a0bb a8b3 a2bd b65e 8d3e
00000080: 0757 163e 53fd f4bd 96cc 4bbe ecf8 6bbe
00000090: 0f3b b6be 8a76 a33c 7788 333e d5c6 28be
000000a0: b861 d0bc cf99 8cbe 98f7 82be a9f3 19bd
000000b0: 9c0d 22be 6756 d1bc a67e 143d 9f9a 133f
000000c0: 2740 9b3d a332 84bc d2e1 cabd 5ab5 0b3e
000000d0: 4f3d d0bc 65d7 863d b436 79be 07f5 073e
000000e0: 0b84 c2be af5e 1d3e 9943 9f3e 612a a13e
000000f0: fac6 483d 997b 83bb 0e80 5abe 0431 63bc
00000100: 2f8d 0d3e 300d 8ebe 25ea 77be 6c39 51be
00000110: 9f3b b0bd 7c5d 8b3e 7f61 b3bc 7941 92bd
00000120: ef11 adbe 4dae 59be ae38 033e 3e48 293e
00000130: bacf 6d3e 06a5 55bc 709c 263e c3a9 e5bc
00000140: 3585 d83e 137c ca3d b061 f73e 6f6e 873e
00000150: acf0 a93e d4fd 32be c7e1 ec3d a2d5 4b3c
00000160: e502 18be 383c 7abe 99bb 55be 5490 39be
00000170: c487 ddbd 0c1f ccbe 464f f9bd f55e c73e
00000180: 7075 bb3c 25f7 4cbe 28d9 e2bd 5200 663e
00000190: 53a7 4bbe 0b06 e63c c55c ba3d 0868 9d3e
000001a0: 6c8b e9bc 8f48 d83d 2b5f 80be 5667 8abe
000001b0: bd0e a73e 4aa8 e43e e502 76be 982a 543e
000001c0: cbe6 a3bd e3af 84bb 051a b8be 6e4c f83e
000001d0: cd28 4d3e 5b78 143f a138 963e 7c9a b5be
000001e0: 24db 0abe bba6 a4be a179 a9bd b00c 1e3e
000001f0: 37b0 f63d ba19 bb3e 6c78 bcbd 0c97 a7be
00000200: 8cfa 1dbd b6ef 553e 8b0e 43bd 147a 5fbe
00000210: bae7 aebd 7d43 46be f2a0 763e ce88 ec3d
00000220: fa7d 8cbe 073c bdbd 90d4 c9bc b8bf 963e
00000230: 6500 02be 5763 aa3d 56a1 d0bd 4e62 95bd
00000240: 639f f4bd 8515 d2bd 29c2 f0be e4b9 423e
00000250: a9fb 133f 11d1 80be 58e7 743e d77e dabb
00000260: 96f2 133e b7f6 083f a063 cabd 319c 613d
00000270: dee4 583e c21a e0bd 4f84 66be b42e b3be
00000280: 40ac 883e b81b 08be 1648 223e 79ad d33d
00000290: 4a79 9ebc 9ed5 5cbe c053 4abd c901 40be
000002a0: 8899 dcbc 6943 043c 1cef 1d3e 58d2 34be
000002b0: 4434 0dbe 9cdb 683e 1bba 19bd 6705 a1be
000002c0: 0f30 30be a1c2 9abe 4244 233f ec2e 203d
000002d0: d415 813c c38f 563d 089c a13e 431e d53d
000002e0: e72c 4e3d 1a68 84be e16e b33d 5489 593c
000002f0: 6353 b7be 6b52 8cbe 1d09 aebb e7d5 7ebc
00000300: 30c5 443e ca33 3cbe 87fa 3f3e cb36 393e
00000310: 3d9f fbbb 971d 27be 83b3 cebd 22b2 34be
00000320: 375a 8bbb 54fc c8bd 0c00 c5bc 7334 60be
00000330: 4249 f6bd 26a4 f13e 81a9 203e 87ad da3c
00000340: c4c6 aa3d 2207 2ebe 7b74 68be 8057 c33e
00000350: f2e3 663e 5ff9 d73e 3f18 d93e cdbe b6bd
00000360: ed04 59be a610 9c3d fa87 e43d eb41 643e
00000370: 1248 a0bc 44d2 0e3e 9499 7bbe f62a 843c
00000380: 6aae 8fbe 7f6e fd3d 7b73 853d b68c 143e
00000390: 30da 09be 49ab 893d b56d 7bbe 4bed 82bc
000003a0: 1de3 043e fc7f 2ebe 2876 8cbe 0977 b6be
000003b0: 01c2 5cbe 0757 6fbd 9c49 3d3d 5344 ffbd
000003c0: d564 27bd 8a21 df3d 155b 94be 2c43 9c3e
000003d0: 73a3 543e 74c5 aa3c b9e5 4e3d fefb 5ebd
000003e0: 962f 9ebd 86a0 22bd 0ed1 4abe d443 dabd
000003f0: dac5 3c3e 9b31 5c3d 449a 5f3d feab 4fbe

sequential/dense_2/MatMul f4 [24, 64]
-0.6853775 -0.34444317 -0.1934 0.40920088 -0.4671638 0.6359396 0.4723136 -0.5083179
0.4058192 0.053998612 -0.3625993 -0.22901998 -0.2738578 -0.29943016 -0.38311693 -0.07485785
-0.36306944 -0.45646837 0.72682136 -0.57152396 0.019748257 0.22870031 0.63912034 0.39157298
0.16430363 -0.44226953 -0.35900012 0.68645364 0.32616144 -0.6837401 -0.54531294 0.4473667
0.686784 0.12396004 -0.28219718 0.01159034 -0.4876818 -0.4360591 -0.36809486 -0.4149954
-0.08329322 -0.038504235 -0.39426056 -0.33104628 -0.2095892 0.27188128 0.55426764 -0.3128682
0.53151673 0.71114254 0.03478431 0.42528015 -0.42702183 -0.11773709 -0.10378708 0.50026274
0.53887427 0.52823424 0.52917594 -0.32396436 0.28718856 0.6592924 0.4117776 0.51179075
0.22952534 0.47369966 0.52773213 0.24017121 0.2034016 0.10696349 -0.59536433 0.44447657
-0.54513144 -0.28324804 0.30385038 -0.23937851 -0.50414795 -0.39971057 0.5514909 -0.46440583
0.16500948 0.48671955 -0.67106205 -0.56353015 0.6460788 -0.6239976 0.9226653 -0.116011955
0.57199323 0.372287 0.6831191 0.41685528 -0.45314687 0.43824297 -0.47726592 -0.30669394
0.49319747 -0.37954348 0.37752008 0.009987513 -0.21668035 -0.6988654 -0.09744874 -0.46961647
0.27183303 -0.5765396 -0.06331638 -0.122842856 0.5853855 -0.11568217 -0.4598688 0.81186014
-0.42991984 -0.14356501 -0.3190333 0.40944475 -0.24246138 -0.36480364 -0.13393101 0.7419282
-0.12092371 -0.03526188 -0.10495796 0.5473899 -0.22214669 0.122451514 0.33818075 -0.25567052
-0.11151373 0.25528634 0.6326954 0.43423685 -0.26943547 0.70499396 0.08217862 -0.25624105
-0.28410542 -0.2494296 -0.07969751 -0.49135658 -0.2913103 -0.020379039 0.3861814 -0.28646266
-0.20402949 0.57654804 -0.3126034 0.56659704 -0.41283545 -0.498634 0.035371672 -0.44887248
0.6017304 0.7268583 -0.48139936 0.2347457 -0.2937062 0.6320104 -0.12135016 -0.24579352
-0.25070098 -0.38609987 0.65248 -0.35822493 -0.43737575 0.6340535 -0.5431644 0.83098364
-0.18992901 0.1999877 -0.26634914 -0.111152016 -0.28394693 -0.25113064 0.09044555 -0.36440048
0.1460763 -0.22968842 -0.13564953 -0.46113196 -0.14496185 0.89255273 -0.3163783 0.1934715
-0.003994223 -0.10859889 0.41160312 0.726855 0.1908903 0.1151074 -0.21764803 -0.009535162
-0.30750147 0.22903831 -0.3835273 0.11763266 0.38787457 -0.6865648 0.5890699 -0.44760898
-0.26023957 0.44991308 -0.22484368 -0.54821354 0.43437213 -0.02201074 0.42065835 -0.1945939
-0.24051945 -0.15695912 -0.2903291 -0.44682154 -0.119146936 0.77897406 -0.46217343 0.5658531
-0.29036668 -0.17315908 -0.6134852 0.024811877 -0.41046703 0.5902917 0.09773239 0.6907273
-0.5505986 0.51859355 -0.37601948 -0.3660715 0.63443315 0.3913739 -0.40900704 0.540498
0.6744648 -0.020473925 -0.30994904 -0.50463116 0.5010788 -0.37492177 -0.33241153 0.4875648
0.07279437 0.18245879 -0.1277053 -0.5678351 -0.25246373 -0.11673341 0.6580388 -0.24954809
0.07781002 0.6362854 -0.6003304 -0.42658862 0.5567771 -0.01643197 0.28282967 -0.41812405
00000000: e674 2fbf db5a b0be a60a 46be c782 d13e
00000010: 1830 efbe f0cc 223f 17d3 f13e 1f21 02bf
00000020: 89c7 cf3e a62d 5d3d 9ea6 b9be 3784 6abe
00000030: 1737 8cbe e94e 99be e727 c4be 134f 99bd
00000040: 3de4 b9be 39b6 e9be f710 3a3f 654f 12bf
00000050: 19c7 a13c 6a30 6a3e 649d 233f 417c c83e
00000060: 363f 283e 2771 e2be ddce b7be 6dbb 2f3f
00000070: a2fe a63e 9709 2fbf a199 0bbf 400d e53e
00000080: 14d1 2f3f c3de fd3d 267c 90be 69e5 3d3c
00000090: 6eb1 f9be 2343 dfbe ee76 bcbe 477a d4be
000000a0: a395 aabd 9eb6 1dbd 85dc c9be e67e a9be
000000b0: 8d9e 56be 0634 8b3e 7ce4 0d3f 4330 a0be
000000c0: 7b11 083f 700d 363f fe79 0e3d 52be d93e
000000d0: 9ba2 dabe 2520 f1bd 528e d4bd 3811 003f
000000e0: aaf3 093f 5c3a 073f 1378 073f a8de a5be
000000f0: 610a 933e 63c7 283f 83d4 d23e b804 033f
00000100: b108 6b3e c388 f23e 7419 073f 71ef 753e
00000110: 8248 503e ad0f db3d cc69 18bf 6f92 e33e
00000120: bc8d 0bbf e305 91be 4792 9b3e a41f 75be
00000130: d70f 01bf dda6 ccbe 822e 0d3f 9ac6 edbe
00000140: 3ff8 283e 4e33 f93e b9ca 2bbf 8343 10bf
00000150: 6c65 253f 4fbe 1fbf cb33 6c3f ad97 edbd
00000160: 266e 123f 679c be3e e5e0 2e3f 0e6e d53e
00000170: de02 e8be 6261 e03e 335c f4be fd06 9dbe
00000180: 6184 fc3e 8653 c2be 504a c13e aaa2 233c
00000190: 74e1 5dbe d8e8 32bf 3493 c7bd 9271 f0be
000001a0: b32d 8b3e 1998 13bf 05ac 81bd 0995 fbbd
000001b0: d3db 153f c6ea ecbd ec73 ebbe 11d6 4f3f
000001c0: 741e dcbe b502 13be 5558 a3be bea2 d13e
000001d0: cc47 78be 8bc7 babe 3625 09be 02ef 3d3f
000001e0: daa6 f7bd c36e 10bd 33f4 d6bd bf21 0c3f
000001f0: 6c7a 63be dcc7 fa3d 0726 ad3e 3fe7 82be
00000200: 4f61 e4bd e4b4 823e 53f8 213f 4b54 de3e
00000210: 72f3 89be 7c7a 343f 444d a83d 0732 83be
00000220: 4476 91be 796a 7fbe 7338 a3bd 1793 fbbe
00000230: a026 95be f1f1 a6bc 92b9 c53e 3cab 92be
00000240: 1bed 50be a798 133f 8e0d a0be 810c 113f
00000250: 2b5f d3be f54c ffbe e3e1 103d 9dd2 e5be
00000260: 010b 1a3f 6313 3a3f fa79 f6be 2d61 703e
00000270: a960 96be 6fcb 213f 6f86 f8bd 4cb1 7bbe
00000280: e15b 80be e2ae c5be ee08 273f 4269 b7be
00000290: b7ef dfbe 5551 223f d20c 0bbf 58bb 543f
000002a0: c07c 42be 93c9 4c3e ea5e 88be aba3 e3bd
000002b0: 7e61 91be 3294 80be 843b b93d b392 babe
000002c0: 0795 153e 7133 6bbe b6e7 0abe 7d19 ecbe
000002d0: e170 14be 567e 643f 56fc a1be 651d 463e
000002e0: f9e1 82bb 1869 debd a5bd d23e 2b13 3a3f
000002f0: bf78 433e 6ebd eb3d 20df 5ebe 5e39 1cbc
00000300: d570 9dbe 0589 6a3e b15d c4be 64e9 f03d
00000310: 7f97 c63e b6c2 2fbf 49cd 163f 012d e5be
00000320: 1f3e 85be 025b e63e 6c3d 66be b957 0cbf
00000330: 0666 de3e de4f b4bc 8860 d73e a043 47be
00000340: bb4a 76be e4b9 20be 04a6 94be cbc5 e4be
00000350: 4f03 f4bd d86a 473f ffa1 ecbe c0db 103f
00000360: f1aa 94be 9d50 31be 5e0d 1dbf 4742 cb3c
00000370: bc28 d2be 5b1d 173f eb27 c83d 81d3 303f
00000380: 08f4 0cbf 8cc2 043f a085 c0be b96d bbbe
00000390: 366a 223f 2962 c83e 5f69 d1be 145e 0a3f
000003a0: baa9 2c3f efb8 a7bc a4b1 9ebe 822f 01bf
000003b0: b346 003f bff5 bfbe d831 aabe 18a2 f93e
000003c0: 3715 953d 7ad6 3a3e 2ec5 02be a45d 11bf
000003d0: ed42 81be ed11 efbd 3b75 283f 8989 7fbe
000003e0: dc5a 9f3d 9ae3 223f 41af 19bf d369 dabe
000003f0: f288 0e3f 579c 86bc 0dcf 903e 5b14 d6be
