chat-ai.tflite (tflite, 108112 bytes, 6 tensors)

sequential/dense/BiasAdd/ReadVariableOp/resource f4 [128]
0	0x3c4bd3ed	0.012440664
1	0xbe1022ed	-0.14075823
2	0xbd82dca9	-0.06389744
3	0xbd610a46	-0.05494144
4	0x3dada715	0.08479134
5	0xbe191e14	-0.1495288
6	0x3d942043	0.07232716
7	0xbe086a37	-0.13321768
8	0x3d1c7fb2	0.038207717
9	0xbe269ff6	-0.16271958
10	0xbe01d71c	-0.12679714
11	0xbda86b4a	-0.08223589
12	0xbe5422c3	-0.20716386
13	0xbe39d407	-0.18147288
14	0x3d944ae5	0.072408475
15	0xbdc02adc	-0.09383175
16	0xbce9494b	-0.028477332
17	0xbe19f4c0	-0.15034771
18	0x3e25649a	0.16151658
19	0xbe49a0a4	-0.19690186
20	0xbcb626d5	-0.022235313
21	0x3d8bf483	0.06833746
22	0xbd307c82	-0.04308749
23	0x3d1a2798	0.037635416
24	0x3da9f236	0.08298151
25	0x3c1f588a	0.009725699
26	0x3dcb496e	0.09926115
27	0xbe349727	-0.17635785
28	0x3ddb6c4c	0.10714015
29	0x3cf250a7	0.029579474
30	0x3dc6b7fc	0.09703061
31	0xbdcc3012	-0.09970106
32	0x3d682ccf	0.056683358
33	0x3d972733	0.073805235
34	0xbde77473	-0.11301508
35	0x3e275fe5	0.16345175
36	0xbca63e88	-0.02029349
37	0xbc41457f	-0.011796354
38	0x3e72672a	0.23672166
39	0xbc9bde7f	-0.019026993
40	0xbed134b2	-0.40860516
41	0xbc5a1d95	-0.013312717
42	0x3e090ed0	0.13384557
43	0xbcee803a	-0.029113878
44	0x3e4e38bc	0.2013883
45	0x3e4d1c19	0.2003025
46	0xbe2a7a0b	-0.16648118
47	0x3c08d359	0.00835117
48	0x3da56896	0.08076589
49	0x3de80efc	0.11330983
50	0x3e38d713	0.18050794
51	0x3d5988ab	0.053108852
52	0x3d3da2e3	0.04629792
53	0x3d8f3ae0	0.069936514
54	0x3c166cbf	0.0091812005
55	0xbd0c2740	-0.03421712
56	0xbdb4e3b4	-0.088324934
57	0x3de477ed	0.111556865
58	0xbcd27f35	-0.025695423
59	0xbda884f4	-0.08228484
60	0xbd273c34	-0.0408289
61	0x3deb8974	0.115008265
62	0xbe99ceba	-0.30040532
63	0xbb85c160	-0.00408189
64	0x3e8408f5	0.25788084
65	0xbe3d3c1b	-0.1847996
66	0xbc581a47	-0.013189859
67	0xbe6e05ee	-0.2324445
68	0xbdc3a35b	-0.09552642
69	0x3dc2e27f	0.09515857
70	0x3d812847	0.063065104
71	0x3d0788ce	0.03308945
72	0x3c916f01	0.017753126
73	0x3c05e709	0.008172759
74	0x3e317e40	0.17333317
75	0x3dd90afc	0.10597798
76	0x3dc764ba	0.09736009
77	0x3e2f6082	0.17126659
78	0xbd570c90	-0.052502215
79	0x3dfd3419	0.123634525
80	0xbc414a26	-0.0117974635
81	0x3d90d002	0.07070924
82	0x3d587c80	0.052853107
83	0x3d993b2f	0.074819915
84	0x3d60230b	0.05472092
85	0xbe0427c8	-0.129058
86	0x3e141804	0.14462286
87	0x3de4777b	0.111556016
88	0xbe393bcc	-0.18089217
89	0x3d401dbf	0.046903368
90	0x3d9ae538	0.07563251
91	0x3e16314b	0.14667241
92	0xbc96dd90	-0.018416196
93	0xbe35ef5f	-0.17767094
94	0xbde0641a	-0.10956593
95	0x3de128fe	0.10994147
96	0x3e4c40f0	0.19946647
97	0x3e9366eb	0.28789458
98	0xbd790e11	-0.06080443
99	0xbef0bc66	-0.47018737
100	0x3cbee499	0.023302363
101	0xbd12ba5d	-0.03582226
102	0xbd714182	-0.058900364
103	0x3d574296	0.052553736
104	0x3dfccd2c	0.12343821
105	0xbd57dd8b	-0.052701514
106	0xbe2e270d	-0.17007084
107	0xbe28b7a3	-0.16476302
108	0x3d46b41d	0.048511613
109	0x3d43caca	0.047800817
110	0xbb71768d	-0.0036844343
111	0x3d13df73	0.03610177
112	0xbe319d2a	-0.1734511
113	0x3df44d9a	0.11928864
114	0x3b478ff6	0.0030450798
115	0x3e3c2daf	0.18376802
116	0xbdbbe1ff	-0.09173965
117	0xbe3d265f	-0.18471669
118	0xbe055b56	-0.13023123
119	0xbe0e53b5	-0.13899119
120	0x3ddbcda6	0.10732584
121	0x3c833ba8	0.016019657
122	0x3e4cf0a8	0.20013678
123	0x3dc31fe7	0.09527569
124	0x3d350ea1	0.044203404
125	0xbe308f71	-0.17242219
126	0xbe44082c	-0.19143742
127	0xbcd8ea6a	-0.026478965

sequential/dense_1/BiasAdd/ReadVariableOp/resource f4 [64]
0	0x3f26dc45	0.65179855
1	0xbe0debda	-0.13859501
2	0xbbdf8592	-0.0068213427
3	0xbe313818	-0.17306554
4	0xbe4a6700	-0.19765854
5	0xbe5dbc5f	-0.21653889
6	0xbe81afe1	-0.25329497
7	0xbe95006b	-0.2910188
8	0x3c8dddee	0.017317738
9	0xbe6ab7d5	-0.22921689
10	0x3e0f8b32	0.14017943
11	0xbe81f3da	-0.25381356
12	0xbd49ae38	-0.049238414
13	0x3ef5e034	0.48022616
14	0x3f354c78	0.7081981
15	0x3d3c2775	0.045936067
16	0xbe132cd3	-0.14372568
17	0x3dccd996	0.10002439
18	0xbd548a12	-0.051889487
19	0x3e34db61	0.17661811
20	0xbdc4517c	-0.095858544
21	0xbe0de8f7	-0.138584
22	0x3eb65e62	0.35618883
23	0x3f38637f	0.7202682
24	0x3d4be4bd	0.04977869
25	0x3eab0324	0.33400834
26	0xbc140778	-0.009034984
27	0x3e73b1e6	0.23798332
28	0x3ea6248e	0.32449764
29	0x3e310fec	0.1729123
30	0x3cb45f32	0.022018049
31	0x3de3413c	0.11096427
32	0x3d9f13b5	0.07767431
33	0x3d83bb94	0.06432262
34	0xbe1a9a84	-0.15098006
35	0xbd6baad6	-0.05753597
36	0x3eda65a2	0.42655665
37	0x3c94085d	0.018070394
38	0x3e00ca4e	0.12577173
39	0x3e8b5c89	0.27219036
40	0xbe7c04f1	-0.2461126
41	0xbe431322	-0.19050267
42	0x3cddf631	0.027094932
43	0x3e4670b5	0.19378932
44	0x3da2753b	0.07932516
45	0xbe871ce7	-0.26389238
46	0x3d4c3101	0.04985142
47	0xbda1b1bd	-0.07895229
48	0xbe3f1758	-0.18661249
49	0x3c26e624	0.010186706
50	0x3eab5916	0.33466405
51	0x3f09796a	0.5370089
52	0x3e61ff75	0.22070105
53	0x3db2d403	0.08731844
54	0x3ca31279	0.01990627
55	0x3dce7222	0.10080363
56	0xbd149740	-0.036277056
57	0x3e10512c	0.14093465
58	0x3e907c57	0.28219864
59	0xbd87f391	-0.066382535
60	0xbe81ec7e	-0.25375742
61	0x3f0b0a5f	0.543127
62	0xbe0687b0	-0.13137698
63	0x3ea6b74d	0.32561722

sequential/dense_2/BiasAdd/ReadVariableOp/resource f4 [24]
0	0xbdbd9550	-0.09256995
1	0xbea54f95	-0.3228728
2	0xbd0828ce	-0.03324204
3	0x3c687e14	0.014190216
4	0x3d0086a0	0.03137839
5	0xbee7aea2	-0.45250422
6	0x3f880454	1.0626321
7	0x3ef30cdf	0.47470757
8	0xbf28148b	-0.65656346
9	0x3fb07dd7	1.3788403
10	0x3f147f2e	0.5800656
11	0xbe3b0b62	-0.18266061
12	0xbeacf30e	-0.33779186
13	0xbdc5bf34	-0.0965561
14	0xbf18baaf	-0.59659857
15	0x3f7089a7	0.9396004
16	0xbed66cfa	-0.41880018
17	0x3edabb86	0.42721194
18	0xbeb626fa	-0.35576612
19	0xbd4d53e5	-0.050128836
20	0xbf2f45c8	-0.6846585
21	0xbe85a0c7	-0.26099226
22	0xbd929379	-0.071570344
23	0xbe97382e	-0.2953505

sequential/dense/MatMul f4 [128, 130]
0	0xbe4a5e57	-0.1976255
1	0xbd94e966	-0.0727108
2	0xbe612635	-0.21987231
3	0x3ea40c35	0.32040563
4	0xbecbc37a	-0.39797574
5	0xbe21b142	-0.15790275
6	0xbd372da8	-0.044721276
7	0xbde74ed1	-0.1129433
8	0xbd8c3d58	-0.06847638
9	0x3d698f5d	0.057021488
10	0xbe352a72	-0.17691973
11	0xbe9589ee	-0.29206795
12	0x3e175047	0.14776717
13	0xbdf23a9c	-0.11827585
14	0xbdb74035	-0.089477934
15	0xbe197710	-0.14986825
16	0xbe675c53	-0.22593813
17	0xbdaa8b85	-0.083273925
18	0xbd8c47df	-0.06849646
19	0x3eb5f9c8	0.3554213
20	0x3e75bae6	0.23997077
21	0x3d98a5a2	0.07453467
22	0xbcff0a5b	-0.031132868
23	0xbe1db275	-0.15400107
24	0x3e12819c	0.14307255
25	0xbd5e1b15	-0.054225046
26	0xbe040cab	-0.12895457
27	0x3edd111b	0.43177113
28	0xbbe8fc98	-0.0071101896
29	0xbd5d73cc	-0.05406551
30	0x3e25823a	0.16162959
31	0xbdd4acd3	-0.10384526
32	0x3f00c7cd	0.5030487
33	0xbe1c1720	-0.15243196
34	0xbdefe112	-0.11712851
35	0xbdcb9922	-0.09941317
36	0xbcb29453	-0.021799242
37	0x3d57ea95	0.05271395
38	0x3d16fd95	0.03686293
39	0x3da3e398	0.080023944
40	0xbe2e0a4b	-0.16996114
41	0xbe067c39	-0.13133325
42	0x3e8581fd	0.26075736
43	0xbe4745e9	-0.19460262
44	0xbde38df1	-0.111110575
45	0xbe0b1944	-0.13583857
46	0x3c64e33b	0.013970192
47	0x3ca2d231	0.019875618
48	0xbd0a7631	-0.033804122
49	0xbebbb84c	-0.36664045
50	0xbd6af7b5	-0.057365138
51	0x3d29d451	0.041462246
52	0x3e15909d	0.14605947
53	0xbe1cbbf0	-0.15306067
54	0xbddd5027	-0.108063035
55	0xbde272a8	-0.11057025
56	0xbd8bcf6f	-0.06826674
57	0x3f1cca57	0.61246246
58	0xbdcb31ac	-0.099215835
59	0xbdece54f	-0.11567175
60	0x3e3007ff	0.1719055
61	0xbe57c460	-0.21071005
62	0x3e489e77	0.195917
63	0x3de8f1a4	0.11374214
64	0x3e031e99	0.12804641
65	0xbcd96cb2	-0.026541088
66	0x3ea7fe42	0.3281117
67	0xbd830645	-0.0639768
68	0x3e07821a	0.13233224
69	0xbd5ff5b6	-0.054677688
70	0xbd09904a	-0.03358487
71	0x3dc075f8	0.09397501
72	0xbe7e022b	-0.24805515
73	0xbca36f82	-0.019950632
74	0xbe8101b7	-0.2519662
75	0xbb5b5e62	-0.0033473005
76	0xbd8eaf6b	-0.06967052
77	0x3d983faf	0.07434022
78	0x3e0709a9	0.13187279
79	0x3e47ab73	0.19498996
80	0xbf0af82b	-0.54284924
81	0xbe34bfff	-0.17651366
82	0x3e4abf0e	0.19799444
83	0x3e803f0b	0.25048098
84	0x3dbcee71	0.092251666
85	0xbd9e5e25	-0.077328004
86	0xbd917892	-0.07103075
87	0xbdbbbe9e	-0.09167217
88	0xbdc08222	-0.09399821
89	0x3db5dc8c	0.088799566
90	0x3c925185	0.017861137
91	0xbcba4a08	-0.022740379
92	0x3db7a424	0.08966854
93	0xbcd97925	-0.026547024
94	0xbd85cd72	-0.06533326
95	0x3e6b6453	0.2298749
96	0xbd891c30	-0.066948295
97	0xbe04da95	-0.12974007
98	0xbcb82e5d	-0.022483045
99	0x3d63494b	0.05548982
100	0xbd7268bd	-0.059181917
101	0xbe1366a1	-0.14394619
102	0x3dd90d75	0.1059827
103	0x3df8628c	0.12128171
104	0x3cc1a66c	0.023638926
105	0xbd908429	-0.070564575
106	0x3e95d405	0.2926332
107	0x3dc508c8	0.096208155
108	0x3e2f96a9	0.17147316
109	0xbd9e9a67	-0.07744294
110	0xbde0938b	-0.109656416
111	0x3e7b4d69	0.24541248
112	0x3e1b256b	0.15150993
113	0xbe0d52a3	-0.13801055
114	0xbd2b705d	-0.041855205
115	0xbdb0bf85	-0.086302795
116	0x3e199fec	0.15002412
117	0xbd929733	-0.07157745
118	0x3ebc7e9b	0.36815342
119	0xbde00e3e	-0.109402165
120	0xbe3e0a31	-0.18558575
121	0x3ec4ec87	0.38461706
122	0x3b1c6288	0.002386244
123	0xbd2caa04	-0.042154327
124	0xbdd9d8ca	-0.10637052
125	0xbd802f2f	-0.062589996
126	0xbdd1bc95	-0.10241047
127	0x3e0fdd51	0.1404927
128	0xbcfbe7fb	-0.030750265
129	0xbd02dde9	-0.03194991
130	0x3e9c1fd2	0.30493027
131	0xbe19968c	-0.14998835
132	0x3e84c984	0.25934994
133	0xbcad0d3f	-0.02112448
134	0x3d50ba3e	0.050958864
135	0xbbb9db78	-0.0056719147
136	0xbcb1f248	-0.021721974
137	0xbd62335f	-0.055224773
138	0x3e76cc74	0.2410143
139	0x3e9c7784	0.30559933
140	0xbdd11975	-0.10209934
141	0x3e8ce23b	0.2751635
142	0xbd1275ba	-0.035756804
143	0xbef439c3	-0.4770032
144	0x3e0ce198	0.13757932
145	0x3c9249d7	0.017857475
146	0xbcdf0a07	-0.027226461
147	0xbdf8d1a6	-0.12149362
148	0x3e4b546e	0.19856426
149	0xbee023dd	-0.43777362
150	0x3d5dccdc	0.054150447
151	0xbd4f796d	-0.05065291
152	0xbd6577c2	-0.056022413
153	0xbd79485d	-0.060860027
154	0xbdff4fc5	-0.12466387
155	0x3b2c4e00	0.0026291609
156	0xbedc01ee	-0.42970222
157	0xbe0fa57e	-0.14027974
158	0x3d7b4558	0.06134543
159	0xbda1cf32	-0.079008475
160	0x3dc64e2e	0.0968288
161	0x3ddf51e8	0.10904294
162	0xbd691eaf	-0.056914028
163	0x3e86d85d	0.26336947
164	0xbeff0743	-0.49810228
165	0x3ea202a1	0.3164263
166	0xbbbccd09	-0.005761747
167	0x3e8136fa	0.25237256
168	0xbd36c7fe	-0.04462432
169	0xbdd45eb6	-0.10369627
170	0x3d85794d	0.06517277
171	0xbdbd1549	-0.092325754
172	0xbc9e19d5	-0.019299427
173	0xbd7a3e6f	-0.061094698
174	0xbd2f20f1	-0.042756025
175	0x3c00d7db	0.007863964
176	0xbba832c1	-0.0051330035
177	0xbe1243c9	-0.1428367
178	0x3e14aed9	0.14519824
179	0xbef496ef	-0.47771403
180	0xbd1920fd	-0.037384976
181	0x3e0e7cbf	0.13914774
182	0x3d45d416	0.048297964
183	0x3eee8b31	0.4659057
184	0x3e138cde	0.14409205
185	0x3df46fe9	0.11935408
186	0xbdb52eca	-0.08846815
187	0xbc99df00	-0.018783092
188	0x3c80df8e	0.0157316
189	0xbe08cb62	-0.13358834
190	0xbd53bcc1	-0.05169368
191	0xbdb0b63e	-0.0862851
192	0x3e04b790	0.12960649
193	0x3d6d0476	0.057865582
194	0xbd24949a	-0.04018078
195	0xbde367bc	-0.1110377
196	0xbd18cb51	-0.037303273
197	0x3e088d57	0.13335167
198	0x3da07a0d	0.07835779
199	0x3e61b0ef	0.22040151
200	0x3ca3ce42	0.019995812
201	0x3c117522	0.008878024
202	0x3ea0f0eb	0.31433806
203	0xbd84c446	-0.06482749
204	0x3d65315b	0.055955272
205	0x3de11d70	0.10991943
206	0x3dfb56db	0.12272426
207	0x3e469b79	0.19395246
208	0x3c2de337	0.010613254
209	0xbcba0902	-0.022709373
210	0xbd7f2786	-0.06229355
211	0xbd7563d7	-0.059909668
212	0x3c09b1de	0.008404223
213	0xbde945ee	-0.11390291
214	0xbda1064b	-0.078625284
215	0x39aca588	0.00032929727
216	0x3d4b9668	0.049703985
217	0xbd9e6798	-0.07734603
218	0xbe205799	-0.15658416
219	0xbdc3e5b0	-0.09565294
220	0x3e077820	0.13229418
221	0x3d80105f	0.062531225
222	0xbb31458d	-0.0027049512
223	0xbcc0d2f2	-0.023538087
224	0x3c020561	0.007935853
225	0xbf04a6c6	-0.51816976
226	0xbcb94cb5	-0.022619585
227	0x3df2a388	0.11847597
228	0x3ce85b4f	0.028363852
229	0x3daa82bf	0.08325719
230	0xbdb41877	-0.08793729
231	0xbd3889c0	-0.045053244
232	0x3e13eca8	0.14445746
233	0xbdc5e951	-0.09663642
234	0x3d186022	0.037201054
235	0xbd3fe91d	-0.046853174
236	0xbef8f7ce	-0.4862656
237	0xbed9b6ab	-0.42522177
238	0x3e29adde	0.16570231
239	0xbe2a9daf	-0.16661714
240	0xbe04989a	-0.12948838
241	0x3de3f9d6	0.11131637
242	0xbb8c48a1	-0.004281119
243	0x3ee87b2a	0.45406467
244	0xbda4a8b5	-0.08039991
245	0xbd61840c	-0.05505757
246	0xbe4f34a8	-0.2023493
247	0xbdba7906	-0.09105115
248	0xbead5ba1	-0.3385897
249	0xbeb3f2ea	-0.35146266
250	0xbe9debb1	-0.3084388
251	0xbd7355ce	-0.059408
252	0x3e517be4	0.20457417
253	0xbd7fe5f8	-0.062475175
254	0x3d7d4110	0.061829627
255	0x3dc2d263	0.09512784

sequential/dense_1/MatMul f4 [64, 128]
0	0x3d4bca7c	0.04975365
1	0xbc2322b9	-0.009957009
2	0xbdbded00	-0.0927372
3	0xbe4287c6	-0.18997106
4	0x3b5d58fc	0.0033774963
5	0xbd4146c4	-0.047186628
6	0xbd5e553e	-0.054280512
7	0x3ceddf24	0.029037066
8	0xbe85c417	-0.26126167
9	0xbcbe52a3	-0.023232764
10	0x3b587111	0.0033026377
11	0xbe2fee03	-0.17180638
12	0xbe9316c3	-0.28728303
13	0xbd3e2e31	-0.04643077
14	0x3c135cf1	0.008994327
15	0xbd9fdd13	-0.078058384
16	0xbda81c9d	-0.082085826
17	0x3c9917f6	0.018688183
18	0x3ed60eb5	0.41808096
19	0x3df40f67	0.11917
20	0x3e9bd13f	0.3043308
21	0xbdd15656	-0.102215454
22	0x3cd2387d	0.025661701
23	0xbe924f61	-0.28576186
24	0xbe7b42dd	-0.24537225
25	0x3d85d5cf	0.065349214
26	0xbde0235d	-0.10944245
27	0xbddce5e7	-0.10786038
28	0x3ee0623c	0.43824947
29	0xbde69b6c	-0.11260113
30	0xbd3304a6	-0.043705605
31	0xbd2008b5	-0.039070804
32	0x3cf5170b	0.029918214
33	0x3ba95256	0.005167286
34	0x3de8563a	0.113445714
35	0x3c9235b7	0.017847879
36	0xbe091596	-0.1338714
37	0x3e2c183b	0.16806118
38	0x3e3d2e89	0.18474783
39	0xbea47507	-0.32120535
40	0x3e0132b6	0.12617001
41	0xbe94bfa1	-0.2905245
42	0x3dceb67f	0.10093402
43	0xbe753abf	-0.23948191
44	0x3e49feb7	0.19726072
45	0xbe9facbb	-0.3118647
46	0xbe997934	-0.29975283
47	0x3e5ae6d2	0.21377113
48	0x3e79a98f	0.24381088
49	0xbdd2a1ce	-0.10284768
50	0x3ec600be	0.3867244
51	0xbde53621	-0.11191965
52	0x3c42cc3e	0.011889515
53	0xbe8478bc	-0.25873363
54	0xbed13cde	-0.4086675
55	0xbdd6715b	-0.104708396
56	0xbe8ec528	-0.27884793
57	0x3ec1de7d	0.37865058
58	0x3d358c45	0.044323225
59	0x3cdc8642	0.026919488
60	0xbdaab4d5	-0.08335272
61	0x3dba82fe	0.09107016
62	0xbe113bf4	-0.14183027
63	0xbda646cc	-0.08118972
64	0x3e4f8d97	0.20268856
65	0x3e5a96b4	0.21346551
66	0xbe75ce8b	-0.24004571
67	0x3d69b868	0.05706063
68	0xbdd20a3c	-0.10255858
69	0xbe75b57c	-0.23995012
70	0x3e2471ef	0.16059087
71	0x3d8a86ce	0.06763993
72	0xbe46fcc9	-0.19432367
73	0xbe3e06c6	-0.18557271
74	0x3ecad96b	0.39619002
75	0x3e3aa586	0.18227205
76	0x3f08f36f	0.5349645
77	0x3d343f41	0.044005636
78	0x3d15d449	0.036579404
79	0xbd9acd36	-0.07558672
80	0xbd91f6f1	-0.071271785
81	0xbdf3e6fe	-0.11909293
82	0x3e6b0558	0.22951257
83	0xbdf5daa3	-0.12004592
84	0x3d45ce58	0.048292488
85	0xbe8534b6	-0.26016778
86	0x3ed36e63	0.41295156
87	0xbddab7a7	-0.1067956
88	0xbe7f2def	-0.24919866
89	0x3d5a3de9	0.0532817
90	0xbe397a90	-0.1811316
91	0x3c0f2e77	0.008739105
92	0x3e36c755	0.17849477
93	0xbda888bf	-0.08229207
94	0x3d4996ad	0.04921596
95	0xbeb9b236	-0.36268777
96	0xbce7c14b	-0.028290411
97	0x3e1f5af2	0.15562037
98	0xbe6c6622	-0.23085836
99	0xbe162f10	-0.1466639
100	0x3c070edd	0.00824329
101	0x3ea51e22	0.32249552
102	0xbea26276	-0.31715745
103	0xbd1bbf6b	-0.038024347
104	0xbe15b706	-0.14620599
105	0x3c8f74a9	0.017511683
106	0x3dbf26fd	0.09333608
107	0xbe8cc986	-0.274975
108	0xbd016184	-0.03158714
109	0xbda4019a	-0.08008118
110	0x3e9f9fdc	0.3117665
111	0x3e0e404f	0.1389172
112	0xbed64907	-0.4185259
113	0x3e7092ce	0.23493502
114	0xbe34dd35	-0.17662509
115	0xbdcbabfa	-0.09944911
116	0xbec77d4a	-0.38962775
117	0xbe85862d	-0.2607893
118	0x3c50cc7a	0.0127440635
119	0xbdddd7a2	-0.10832144
120	0x3ee1a883	0.44073877
121	0x3dea342f	0.114357345
122	0x3edb949c	0.42886817
123	0xbd7b3a1e	-0.06133472
124	0xbe516513	-0.20448713
125	0xbc8dd996	-0.017315667
126	0xbbb24e65	-0.0054414743
127	0xbec0d315	-0.37661043
128	0xbddf8d0d	-0.10915575
129	0x3eeea852	0.46612793
130	0x3e5eb1b3	0.21747474
131	0x3dcec97a	0.10097022
132	0xbd888774	-0.06666461
133	0xbe72e5cc	-0.23720473
134	0x3e3faf3f	0.18719195
135	0xbdc946cc	-0.098279566
136	0x3dbd9a90	0.09257996
137	0x3e43ba3f	0.19114016
138	0x3e9baf42	0.3040715
139	0xbdcb5c9f	-0.099297754
140	0x3ee26324	0.44216263
141	0xbe6b56f3	-0.22982387
142	0x3d8f5386	0.06998353
143	0x3dc62f5c	0.09677002
144	0xbe86162a	-0.26188785
145	0x3e89b816	0.2689826
146	0xbe99a798	-0.30010676
147	0x3e1d804d	0.15380974
148	0xbd472ce6	-0.048626803
149	0x3e8eddef	0.27903697
150	0xbb700f8f	-0.0036630367
151	0x3dcd2ca2	0.10018279
152	0xbde4d898	-0.111741245
153	0xbcdb029e	-0.026734646
154	0xbe39a137	-0.18127905
155	0xbd4f78dd	-0.050652374
156	0xbec387b7	-0.3818948
157	0x3dd2b6cf	0.10288774
158	0x3e7ce71f	0.2469754
159	0x3e59f5a2	0.21285108
160	0x3d97e937	0.07417529
161	0x3e1e14ba	0.15437594
162	0xbeb971cb	-0.3621963
163	0x3e3cad8e	0.18425581
164	0x3e569512	0.20955303
165	0xbc8516fa	-0.016246308
166	0x3d479159	0.0487226
167	0xbb14149f	-0.00225953
168	0x3df2dba5	0.118583
169	0xbdfb1829	-0.122604676
170	0xbe8e48cb	-0.27789912
171	0x3d96016a	0.073244885
172	0xbecf7c05	-0.40524307
173	0xbe196913	-0.14981489
174	0x3e6c3f31	0.2307098
175	0x3d2cc967	0.04218426
176	0x3da5bee4	0.0809305
177	0xb93c8902	-0.00017980117
178	0xbdff4032	-0.12463416
179	0x3ec7bf93	0.39013347
180	0x3c38fa00	0.011290073
181	0x3e145345	0.1448489
182	0xbd1eba78	-0.03875205
183	0xbd856014	-0.06512466
184	0x3d094b7a	0.033519246
185	0xbd474634	-0.048650935
186	0x3e1b3b98	0.15159452
187	0x3db9ef38	0.090788305
188	0xbe2445df	-0.16042279
189	0x3d8ba3bd	0.0681834
190	0x3e639d83	0.22228055
191	0x3dffbb1d	0.12486861
192	0xbe1efdd7	-0.1552652
193	0x3eaeca95	0.34138933
194	0xbdf0abc0	-0.11751509
195	0xbdc79f4d	-0.09747181
196	0x3dcf263a	0.10114713
197	0xbe84f1c3	-0.259657
198	0x3ec3e1f0	0.38258314
199	0x3db61799	0.0889122
200	0xbea97311	-0.330956
201	0xbc8c7ee3	-0.017150348
202	0xbd33185b	-0.0437244
203	0x3be19ed2	0.006885388
204	0xba9b7926	-0.0011861667
205	0x3e508b04	0.2036553
206	0x3e8785de	0.2646932
207	0xbed00783	-0.4063073
208	0x3d9f9e41	0.077938564
209	0x3c30541e	0.010762243
210	0xbdcb1138	-0.099153936
211	0x3e14a050	0.1451428
212	0x3de1fcc9	0.11034543
213	0xbcf173af	-0.029474108
214	0xbe76529b	-0.24054949
215	0x3c338c14	0.01095869
216	0x3f00d057	0.503179
217	0x3e000044	0.12500101
218	0xbe0a5e31	-0.13512494
219	0x3d387e8b	0.045042556
220	0x3d1255e8	0.035726458
221	0xbdc5bb86	-0.09654908
222	0xbd119b96	-0.03554877
223	0xbe0f8eea	-0.14019361
224	0xbe04591c	-0.12924618
225	0x3e32cb13	0.17460279
226	0x3d6c8dda	0.057752468
227	0x3e7ed98a	0.24887672
228	0x3e79b3d7	0.2438501
229	0xbe42d596	-0.19026789
230	0x3efa8acb	0.48934016
231	0x3d27c809	0.040962253
232	0xbe23527a	-0.15949431
233	0x3dbb4885	0.091446914
234	0xbe90bcb3	-0.28268966
235	0xbe07a11b	-0.1324505
236	0xbe306a45	-0.17228039
237	0x3ec9c838	0.39410567
238	0x3da99517	0.0828039
239	0xbe78bb7d	-0.24290271
240	0xbb8e51b4	-0.004343236
241	0x3e2cbbaf	0.1686847
242	0x3e1b5b06	0.15171441
243	0x3cab97a6	0.020946335
244	0x3eda6640	0.42656136
245	0x3d8a599c	0.06755373
246	0x3dde8aea	0.108663395
247	0x3e00bbca	0.12571636
248	0xbe8d5c7b	-0.2760962
249	0x3d2e88b7	0.04261085
250	0xbe912823	-0.28350934
251	0x3e36feb0	0.17870593
252	0x3e4c9102	0.19977191
253	0x3e958f8f	0.2921109
254	0x3ec68dd1	0.38780072
255	0xbd6a0785	-0.057136077

sequential/dense_2/MatMul f4 [24, 64]
0	0x3e325eac	0.17418927
1	0xbefc5ed5	-0.492911
2	0xbd31dddf	-0.043424483
3	0x3f0c987d	0.5492018
4	0x3ebd396a	0.36957866
5	0xbea3481d	-0.31890956
6	0xbee672de	-0.45009512
7	0x3ccd2c84	0.02504564
8	0xbe6232b8	-0.2208966
9	0x3f248a14	0.6427319
10	0x3f0bb0c8	0.5456662
11	0xbd0771b2	-0.033067413
12	0x3e868d25	0.2627956
13	0xbf07d3f1	-0.5305777
14	0x3ecc054a	0.39847785
15	0x3d7694f6	0.060200654
16	0x3f47a114	0.7798016
17	0x3f1ca2ae	0.6118573
18	0x3f1e1253	0.6174671
19	0x3f117f0e	0.56834495
20	0x3e80586b	0.25067458
21	0xbe842491	-0.25809148
22	0xbe07f007	-0.13275157
23	0xbf089a27	-0.5336022
24	0xbe887df2	-0.2665859
25	0x3f3b88a1	0.73255354
26	0xbf0af6c5	-0.5428279
27	0xbee73c90	-0.45163393
28	0xbef04fff	-0.46936032
29	0xbe437cec	-0.19090623
30	0xbf111162	-0.5666715
31	0x3f0f8349	0.560597
32	0xbf294a26	-0.66128767
33	0xbe9652ec	-0.2936014
34	0x3f0afb37	0.54289573
35	0x3f2368a3	0.6383154
36	0x3eaadc8d	0.33371392
37	0xbe04e685	-0.12978561
38	0x3ebcfdf3	0.36912498
39	0x3e70f12e	0.23529503
40	0x3edae7d0	0.42754984
41	0xbec4ef14	-0.38463652
42	0x3eeb1ea5	0.45921817
43	0xbe672aab	-0.2257487
44	0x3f30d285	0.6907123
45	0xbe918cb4	-0.2842766
46	0xbecbffc1	-0.39843562
47	0x3b904c14	0.0044036005
48	0xbe7be32e	-0.24598381
49	0x3e0cc1f7	0.13745867
50	0xbf16cfec	-0.58911014
51	0x3f1376e4	0.5760329
52	0x3f1a6dc1	0.6032372
53	0xbef754c3	-0.48306856
54	0xbebe84d4	-0.37210715
55	0xbf14e00a	-0.58154356
56	0x3ee5b1ac	0.44862115
57	0xbba86bbe	-0.005139797
58	0x3da53856	0.08067386
59	0xbe80a74a	-0.2512763
60	0xbe0c13fc	-0.13679498
61	0xbe0d7cc6	-0.13817129
62	0xbe473af8	-0.19456089
63	0xbf07ed29	-0.5309625
64	0xbe0b5009	-0.1360475
65	0x3f2909bc	0.6603048
66	0xbe8bf63a	-0.27336293
67	0x3f017f46	0.5058483
68	0xbe90c279	-0.2827337
69	0xbe9b632e	-0.30349106
70	0x3e565de4	0.20934254
71	0x3f4eb703	0.80748004
72	0x3f03749c	0.51349807
73	0x3ebfc03f	0.3745136
74	0xbe6ca6e1	-0.23110534
75	0x3eab7a3c	0.33491695
76	0xbea29043	-0.31750688
77	0xbf04e118	-0.51905966
78	0xbf119332	-0.5686523
79	0xbcd70752	-0.026248608
80	0xbf03d268	-0.5149293
81	0x3ef34289	0.475117
82	0xbed5a94e	-0.41730732
83	0xbedf703f	-0.43640324
84	0x3edf7af5	0.43648496
85	0xbe96672f	-0.29375598
86	0xbed3930c	-0.41323125
87	0x3d00c023	0.031433236
88	0xbf0e3830	-0.55554485
89	0x3c8da725	0.017291615
90	0x3e91d076	0.28479356
91	0xbe79ccea	-0.24394575
92	0xbe8ee06a	-0.2790559
93	0xbef91397	-0.48647758
94	0x3f1f400c	0.622071
95	0xbdfbbd80	-0.12292004
96	0xbeffa4b0	-0.49930334
97	0x3f321644	0.69565225
98	0x3f08c298	0.53421926
99	0xbdb4e7db	-0.088332854
100	0x3ec2b9d5	0.38032404
101	0xbdb8939b	-0.090125285
102	0x3f0dc0b5	0.5537217
103	0xbe9d773b	-0.30755028
104	0x3f07e447	0.530827
105	0x3f2b0481	0.6680375
106	0x3d74bf16	0.059752546
107	0xbe9bbc90	-0.304173
108	0xbf04a727	-0.51817554
109	0x3e8aeab0	0.27132177
110	0x3f0b2d52	0.5436603
111	0xbf016f5a	-0.50560534
112	0x3f211a1f	0.6293048
113	0x3e996727	0.29961511
114	0xbf145c39	-0.5795322
115	0xbf1cffc2	-0.61327755
116	0xbe251cdb	-0.16124289
117	0x3c9ad657	0.018901033
118	0xbe9de823	-0.3084117
119	0x3f10501c	0.5637224
120	0xbea35890	-0.31903505
121	0xbefbc40c	-0.4917301
122	0xbf196df6	-0.5993341
123	0xbe98736b	-0.29775557
124	0x3ec1aacd	0.37825623
125	0xbeb5bfed	-0.3549799
126	0x3ef8bccb	0.48581538
127	0xbf0d13af	-0.5510816
128	0x3f5e0f4c	0.8674209
129	0xbe00f454	-0.12593204
130	0x3f184de0	0.5949383
131	0xbe4339a0	-0.19064951
132	0x3f20c30c	0.6279762
133	0xbe04b2a5	-0.12958772
134	0xbe04767b	-0.12935822
135	0xbe7d6bab	-0.24748103
136	0xbeb0d7ab	-0.34539542
137	0xbe19d46e	-0.15022442
138	0xbed01089	-0.40637615
139	0xbe80d8ea	-0.25165492
140	0xbc2f999f	-0.0107177785
141	0x3f1bc7ab	0.60851544
142	0xbf042184	-0.5161364
143	0x3dde42d1	0.10852588
144	0x3d0ef3a3	0.03490032
145	0x3e864b9f	0.2622957
146	0x3ecb7cd0	0.39743662
147	0xbec55c60	-0.3854704
148	0xbef76688	-0.48320413
149	0xbeb435d3	-0.35197315
150	0xbf092e99	-0.5358673
151	0xbefcf415	-0.4940497
152	0x3e00547f	0.12532233
153	0x3efb62ce	0.4909882
154	0xbed298fe	-0.4113235
155	0x3ed49179	0.41517237
156	0xbe75126b	-0.23932807
157	0x3f091ff3	0.53564376
158	0x3f0818a1	0.5316258
159	0xbe58a84f	-0.21157955
160	0x3f03334b	0.5125014
161	0xbdffd742	-0.12492229
162	0x3f139e16	0.57663095
163	0xbe1afea3	-0.15136199
164	0xbe0b1bb7	-0.13584791
165	0xbe059e7e	-0.13048741
166	0x3ea17a71	0.31538728
167	0xbe8f5d0b	-0.28000674
168	0xbeafb042	-0.34314162
169	0x3f17bae7	0.59269565
170	0xbdf50313	-0.11963477
171	0xbe840750	-0.2578683
172	0x3f417c1f	0.7558002
173	0xbf352ca6	-0.70771253
174	0x3f060438	0.5235019
175	0xbe93070e	-0.2871632
176	0x3efe94e7	0.49722978
177	0xbe718101	-0.23584367
178	0xbeacba86	-0.33736056
179	0xbe8ab1cc	-0.27088773
180	0xbeca7cb7	-0.39548275
181	0xbbc8cd67	-0.0061280015
182	0xbd9a7ff9	-0.0754394
183	0x3ea1eb39	0.31624773
184	0xbe5cb4fa	-0.21553412
185	0x3d4cfad8	0.05004391
186	0xbee82efe	-0.45348352
187	0xbef0b933	-0.47016296
188	0xbeaafca9	-0.3339589
189	0xbee510ee	-0.4473948
190	0x3f20308f	0.62574095
191	0x3f0cb900	0.5496979
192	0xbf360adb	-0.71110314
193	0xbe699557	-0.22810875
194	0xbd819034	-0.06326333
195	0x3f03ae71	0.5143805
196	0xbed16c0e	-0.40902752
197	0x3f482209	0.78176934
198	0xbda3ca68	-0.0799759
199	0xbe7ebad8	-0.24875963
200	0xbf06cd3c	-0.5265691
201	0xbeb8a122	-0.36060435
202	0xbf018ef0	-0.5060873
203	0xbeab0634	-0.3340317
204	0xbdf5ec58	-0.120079696
205	0x3f2cd037	0.6750521
206	0xbf13749b	-0.575998
207	0x3e498da2	0.19682935
208	0xbe9cdb05	-0.3063585
209	0xbf1bea75	-0.6090463
210	0xbe8570c7	-0.26062605
211	0xbf0ebdf5	-0.557586
212	0xbe7f0698	-0.24904859
213	0xbe5f36da	-0.21798268
214	0x3ee9b383	0.4564477
215	0x3f0376f3	0.5135338
216	0x3f2e0610	0.67978
217	0xbf17d60b	-0.5931098
218	0x3ddf07cb	0.10890158
219	0xbe553beb	-0.20823638
220	0x3f1a783b	0.6033971
221	0x3eacdc1e	0.33761686
222	0xbe9740ea	-0.29541713
223	0x3efbcd5f	0.49180123
224	0x3ecb7e6b	0.39744887
225	0x3f326b70	0.69695187
226	0xbebcb438	-0.36856246
227	0xbec4bd33	-0.38425598
228	0xbc870d47	-0.016485823
229	0xbe33e761	-0.17568733
230	0xbef86caa	-0.48520404
231	0x3eebf062	0.46081835
232	0xbeac0ebc	-0.3360499
233	0xbeb93d2e	-0.3617949
234	0xbed2b856	-0.41156262
235	0xbe9cf8d7	-0.306586
236	0xbef49729	-0.47771576
237	0x3f005978	0.5013652
238	0xbea2be0d	-0.31785622
239	0x3ef8c833	0.4859024
240	0x3e2c7efe	0.16845319
241	0xbece7d3f	-0.4032993
242	0x3f0c316e	0.54762924
243	0x3f278ee8	0.6545243
244	0x3f09c065	0.53809196
245	0xbe7ab37c	-0.2448253
246	0x3f16c988	0.5890126
247	0x3f221f2b	0.6332881
248	0x3d290937	0.041268554
249	0xbf0c5ade	-0.5482615
250	0xbea3806e	-0.31933922
251	0x3f0e53fd	0.55596906
252	0xbe9a7512	-0.30167443
253	0x3ec77163	0.38953695
254	0xbe498778	-0.19680583
255	0xbeed5088	-0.46350503
